latency-app/pg_drl_model_final.pth (torch, 75510 bytes, 6 tensors)

net.0.weight f4 [128, 7]
00000000: 57c4 ae3e 96e9 a93e c810 13be 53d0 d33e
00000010: 3a94 ebbd 8e87 cc3d 5222 42be b679 333e
00000020: 5910 c53e f346 a6be e8bd c63e bd8d 2d3e
00000030: 8c6e 933e b198 773d 71eb 3f3e 50f7 32bd
00000040: f6e5 b83e 4c80 033e c207 76be 34a4 053e
00000050: 8cc7 47be c547 5dbd 49c5 13be 89b5 993e
00000060: 2e7c cdbe 2328 62be 705b d8bd 942f 68be
00000070: f6d7 9abb e26b adbe c222 953e 13de e1be
00000080: c8cc aa3e ca10 4a3c a653 f5bd 5239 533e
00000090: b82e cf3c 5528 ac3e 10e9 da3c 28e2 d2bd
000000a0: 5849 c83d f220 cabd 253f 013e 3cff 983e
000000b0: 79cb 683e 0c6f 5abe 7f38 a43e 2fad 903d
000000c0: 8693 1f3e 2422 7cbe 9c64 bcbe b6ad 21be
000000d0: ff85 c2be 4978 c63e 406d 253e 690f 1a3e
000000e0: 2c51 ab3d f8a1 803c 0f25 9d3e 47a7 c2be
000000f0: f38d 6d3c d9d5 7abe a923 ed3d 95c7 1ebe
00000100: 8e14 a13d 4d0f 30bd ddbe d43e 1ac6 83be
00000110: 384f 4bbe 16d5 6bbe c72d 9f3e 6739 d73d
00000120: 55b8 bc3e 97d8 bbbe 79f8 efbe 002f 86be
00000130: e1de 8fbe b529 053e 1eb4 ee3d c959 ac3e
00000140: 4b61 66be 23e1 a6be adca 363e db11 f8bd
00000150: 7796 2b3e b7a1 b9bd 9783 593e 911b cdbe
00000160: 3c0c 7ebe a50d 0a3e 8f0d 543d 0272 c4bd
00000170: 4cf1 7a3e a38a 7a3e d093 93be 477f 77be
00000180: e211 b83e 3bf2 9ebd 75bd d1bd 27ba ddbe
00000190: c4d5 87be 239d d93d eb17 d7bb 18fd aabe
000001a0: e64a 1c3c 83c9 87be 1ea0 97be 2acb 69be
000001b0: d66e d8be d945 94be 2e01 b73e 2d79 873d
000001c0: 6c81 e63d def9 b5be 90df 7abe 76f4 1fbe
000001d0: 9c6c f23d 5847 bdbe 8aca 2dbe 5acb 47be
000001e0: 316e 8b3c 7ac8 52be 4ea2 7dbc d5d7 82be
000001f0: 5a99 8bbe 243c 74be b6b1 b9bd 3cfa 87be
00000200: a4be 9d3e 6b39 f3bd 9da9 ef3e 64a1 d13d
00000210: 8219 81be 92c8 473e 10a0 a0bc e0af abbd
00000220: 82ba c3be 568e 00bf 5537 873d cbd1 6bbd
00000230: 36d6 a63d f9b8 a6be 0f89 8a3e 5628 d0be
00000240: 8672 2d3d 81f4 d73d 4a0c 483e f678 843e
00000250: 5b83 af3e 6e4e cbbe 4d5a 0d3e ad17 16be
00000260: 765a 50bd 19c9 8dbe 262d b13e 553c a4be
00000270: 8910 593e a858 df3d 882d 873e b812 8bbe
00000280: cfb6 a33e 1505 053e 0241 663d 6528 c9be
00000290: 13a8 4c3e 7aa3 03bb 9667 5bbe 5d22 ab3e
000002a0: 66ac fb3d 5e40 82be 55d1 50be d3e7 bd3c
000002b0: e83c 753e 4eeb c7bd 1588 5abe 9854 c7bd
000002c0: 848b 91be d149 d03d fa1e a23e 588d cfbe
000002d0: cc21 c93d d619 4a3e 541d a43d 0cba 01be
000002e0: cd92 923e d8f3 553e bc75 8a3e 6a59 0dbe
000002f0: bc21 6bbd 8e69 013d 1109 b73b 2205 9abd
00000300: cf34 8d3e 84ef 043f 591a fdbc a7bf 53bd
00000310: 9df3 6fbb f50f 6bbc 0dc0 763d 10af 623d
00000320: 7fe4 adbe b589 0bbe f668 a03e ed4d d43d
00000330: cec5 383d be75 6abe 5d69 a0be 7bf1 ebbe
00000340: 9def f0bd e2d0 b13d 7321 773e 224f 633e
00000350: 11a6 c5be 0226 67be c85f 76bd 2756 bb3e
00000360: 331e 9b3d 2587 c2bd 7af6 1a3e 0434 3dbe
00000370: 401f 9bbe 90be be3e 6c71 15be 042d 91bd
00000380: 03a9 ccbe 2135 713e 9287 8d3e dc68 173e
00000390: 2072 8bbe 7915 d0be 53e5 a0be 9456 9e3e
000003a0: 2ebf 563e 67dc 8b3e f32f 463e 5986 703e
000003b0: 062f b93c d9ca 87be c7fd a6be 6220 b4be
000003c0: 1164 1a3e 05e0 68be 5d45 94bd 07b9 65be
000003d0: 00ac 7ebd aeb7 75be 7ea6 7dbe 9cae 003e
000003e0: c55a 39be bf09 913e e13f 17be 93e2 8abe
000003f0: 33ea bfbd 1301 10be fe12 09be a711 fcbe
0.3413417 0.33186024 -0.1436187 0.41369876 -0.11502881 0.099867925 -0.18958405 0.17526898
0.38489035 -0.32476005 0.38816762 0.169486 0.28795278 0.060448352 0.18742158 -0.043692887
0.36112946 0.1284191 -0.24026397 0.1305092 -0.19509715 -0.054023523 -0.14430727 0.30021313
-0.40133804 -0.22085623 -0.10564315 -0.226744 -0.0047254516 -0.3387137 0.2912808 -0.44114742
0.3335936 0.012333104 -0.11978845 0.20627335 0.025290832 0.3362452 0.026722461 -0.10297042
0.09779614 -0.09869565 0.12621744 0.29882228 0.22733869 -0.21331424 0.32074353 0.07064282
0.1558362 -0.24622399 -0.3679551 -0.15788922 -0.37992856 0.38763645 0.16154957 0.15044941
0.08365092 0.015702233 0.30692336 -0.38018247 0.014499175 -0.24495639 0.11579067 -0.15505822
0.078652486 -0.042983342 0.41551867 -0.25737077 -0.19854438 -0.23030505 0.31089613 0.105089955
0.36859384 -0.36688682 -0.46869257 -0.26207733 -0.2809973 0.13004191 0.116554484 0.3366225
-0.22498052 -0.3259364 0.17850752 -0.12112781 0.16756617 -0.09064048 0.21241604 -0.40060094
-0.24809355 0.13481767 0.051770743 -0.09592058 0.2450611 0.24466948 -0.2882371 -0.24169646
0.35951144 -0.077610455 -0.10241214 -0.43306085 -0.26530278 0.106256746 -0.0065641305 -0.3339622
0.009539342 -0.2652093 -0.29614347 -0.22831407 -0.4227206 -0.2895954 0.35743088 0.06614909
0.11255154 -0.35542196 -0.24499345 -0.15620598 0.11837122 -0.36968493 -0.16971794 -0.19511166
0.017020317 -0.20584288 -0.015480591 -0.25555292 -0.27265435 -0.23851067 -0.09067099 -0.265581
0.3080951 -0.11876186 0.46809092 0.10235861 -0.25214773 0.19510105 -0.019607574 -0.08383155
-0.38228232 -0.5021719 0.066023506 -0.05757312 0.08146326 -0.32562998 0.27057692 -0.40655774
0.042345546 0.10544682 0.19535938 0.25873536 0.34279904 -0.39708275 0.13803978 -0.14657469
-0.05086752 -0.27692488 0.34604758 -0.3207728 0.21197714 0.10905582 0.26401925 -0.2716272
0.3197541 0.1299022 0.05621434 -0.3928863 0.1998599 -0.0020086453 -0.21426234 0.33424655
0.12288742 -0.25439733 -0.20392354 0.023181831 0.23949015 -0.09761678 -0.21340974 -0.09732932
-0.28426754 0.10170329 0.31664258 -0.40537524 0.09820899 0.19736418 0.080134064 -0.12668628
0.28627625 0.208938 0.2704295 -0.1380364 -0.05740522 0.031594805 0.0055857976 -0.0752051
0.27579352 0.5192797 -0.030896353 -0.051696446 -0.003661371 -0.014347066 0.060241748 0.055342734
-0.3396339 -0.1362675 0.3133008 0.10366426 0.045110516 -0.22896478 -0.31330386 -0.46082672
-0.117644526 0.08682419 0.24133854 0.22198156 -0.3860326 -0.22573093 -0.060149938 0.36589167
0.075741194 -0.09498433 0.15133086 -0.18476874 -0.3029728 0.37254763 -0.14594048 -0.07088664
-0.39972696 0.23555423 0.27642494 0.14786094 -0.27235508 -0.40641382 -0.3142496 0.3092543
0.20971367 0.2731659 0.19354229 0.2348875 0.02260543 -0.26521948 -0.32615492 -0.35180956
0.15077235 -0.22741707 -0.072397925 -0.22433864 -0.06217575 -0.2399585 -0.24770543 0.12566608
-0.18101032 0.28327748 -0.14770462 -0.27125987 -0.09370842 -0.1406291 -0.13386151 -0.49232218

net.0.bias f4 [128]
00000000: a8d1 83bd 201b a5bd 22e4 b9bc 0b29 c1bd
00000010: 1b50 b73e fd15 663e 70b3 c63e 80b5 103d
00000020: e3db 123e 3b3c 3f3e 6982 a3be 03ce 823d
00000030: 17d4 163c 08ad 3bbe 2d9a 55be 4ecb ce3e
00000040: 5958 c73e 57bd 673e 0fb4 cd3e 9be0 f1bd
00000050: d432 60bc 3709 673e b125 50bb 9f81 fa3b
00000060: 20df 8dbe f8e9 073e cac8 21be 84a2 c53d
00000070: e7a3 e13e 41aa 3bbd 9567 97bd 4e5a 993e
00000080: 8223 e0bd e81c 923c 4a30 d73e acde 12be
00000090: ad49 45be 050a 03be eb1f b2bd 56f7 f8bd
000000a0: 3507 1cbe aee8 5c3e a99e fc3d 0a8f 68bd
000000b0: 9e42 66be 5dd4 87bd 88c0 b8bd 4a9a c9bd
000000c0: 50bb 99be 48ca fc3d 3e8e 4fbe 5345 7ebe
000000d0: 54e3 7fbe 8121 433e 2dc5 46be de93 afbd
000000e0: a674 bb3e 3a16 513e 1bd9 873e d924 99be
000000f0: 84bd 29be 8f37 e5bd 1e53 a93e c780 e53d
00000100: e769 7cbe 79d8 0b3c 9e3f 80be a260 11bd
00000110: 2387 36bc 6934 c83e bdb4 273e 2005 34bd
00000120: 22dd 0d3e 7cd9 56bd 7818 5c3e 9685 323e
00000130: 02c4 133e 5a8a 2abe 901f 9f3e b758 30ba
00000140: ff80 c9bd 7435 a73e 1f68 ba3e da6a dc3e
00000150: 9903 673e ccc1 93bd 5254 813e 9ab1 a43e
00000160: 4f44 94be d791 0c3c 9ae0 40be cf3f 093e
00000170: e135 523e d6f8 ffbc c00d 2e3c 7625 933e
00000180: 2d16 0d3c 5149 86be e332 b73e 4c23 e2bd
00000190: 0f36 40bd 120a a83d f960 203d bcaa b5be
000001a0: 893d 5c3e b3fc f9bd 2ef3 28be 4d63 be3d
000001b0: c9a0 e9bd 58f6 ecbd 3471 ecbd b0a1 03be
000001c0: a867 eebd bb9c 90bd 0aca 223e 5662 84be
000001d0: 9a6f 3abe da0a d43c 646c e03d f523 693e
000001e0: 8595 4bbe e524 0d3e ed64 703e e87e 863e
000001f0: be46 75be a95b 8ebd a1b3 90be fdab 4abe
-0.06436473 -0.08061814 -0.02269179 -0.094316565 0.35803303 0.22469325 0.38808775 0.035329342
0.14341693 0.1867532 -0.31935433 0.0638695 0.00920584 -0.18327725 -0.20859595 0.40389484
0.3893459 0.22630821 0.40176436 -0.11810418 -0.013683993 0.22562109 -0.0031760747 0.0076448466
-0.27709293 0.13272846 -0.15799251 0.09650138 0.4407036 -0.045816664 -0.073928036 0.2995171
-0.109442726 0.01783605 0.4202903 -0.14342755 -0.19266386 -0.12796791 -0.08697494 -0.121565506
-0.15237124 0.21573135 0.123349495 -0.056777038 -0.2248635 -0.06632302 -0.090210974 -0.098438814
-0.3002572 0.123432696 -0.20269105 -0.24831133 -0.24989063 0.1905575 -0.19411154 -0.08573125
0.36612433 0.20418635 0.26532826 -0.29910925 -0.165762 -0.111922376 0.33071226 0.11206203
-0.24649774 0.008535498 -0.25048536 -0.035492547 -0.011140618 0.39102486 0.1637754 -0.0439502
0.13853887 -0.052453503 0.21493709 0.17433771 0.1443024 -0.1665434 0.31078768 -0.0006727087
-0.09839057 0.3265797 0.36407563 0.4305027 0.22559966 -0.07214698 0.25259644 0.3216675
-0.28958365 0.008579693 -0.18835679 0.13403247 0.20528366 -0.031246584 0.010623395 0.28739518
0.008611244 -0.2622781 0.3578101 -0.110418886 -0.046926554 0.08205046 0.03915498 -0.35481822
0.21507849 -0.12206402 -0.16499016 0.09296284 -0.114076205 -0.11570424 -0.11545029 -0.12854648
-0.116408646 -0.07061144 0.15897384 -0.25856274 -0.18206635 0.02588408 0.10958174 0.22767623
-0.19881256 0.13783605 0.23476 0.26268697 -0.23952767 -0.069510765 -0.28262046 -0.19792171

net.2.weight f4 [128, 128]
00000000: 9b2c 5d3d d66a 113d cb28 e5b8 3745 e9bd
00000010: fe2b 653d 7f06 64bd f744 b73d 2c12 b0bc
00000020: cccb a3bc 7c0b cbbd b363 57bd 0062 2c3d
00000030: e16f 8ebb 7816 b8bd f883 263b 11ab 84bd
00000040: eda5 04bd bc36 f63c 263e c73d dadf edbc
00000050: d3e0 e5bc cc79 49bd 880d ab3d 29fb df3c
00000060: 3085 e83d d003 b5bd 6522 573e 840b 103e
00000070: 9933 b1bd d4d8 e4bd efbf 4c3d 2117 333d
00000080: 2236 9abc dcad 273d eb8f febc c643 51bd
00000090: 9492 e7bd 75b2 063d a2c6 923d 8490 663d
000000a0: 4c85 f5bd 3a6e 0e3d a16f 9bbd 32ec 873d
000000b0: f236 273d cfc3 c83d 3425 e53b bf9e cc3b
000000c0: ff4b 40bc 7aa1 1d3d 8095 aabd a174 f33c
000000d0: 9696 9fbd 6a34 1dbd d29b 6dbd ea63 25bb
000000e0: 79d3 cbbd dc45 f63a 6889 39bd 7190 a1bd
000000f0: 2deb 193e 9c3f bd3d fb22 c73d ee4a 4c3d
00000100: 6f29 c4bd 0148 fcbd 4e1f 8c3a 99c4 823d
00000110: 2634 f03b cc80 483d 2899 823d ed91 08bd
00000120: 23ad d5bd a3fe ad3c 7ada 663d fd55 e83d
00000130: 9e7a b4bd 5f81 843d e6d4 6bbd 904f e93d
00000140: 4c74 b7bd 55f6 d7bb e0c7 f63b f5e7 cf3d
00000150: 48a1 23bd 3bc4 913d f3b5 c8bd 0880 6fbd
00000160: ee84 1ebd 1caa d63d 859d c3bc 503e 52bc
00000170: 31a1 aabb 42e5 403e a2ad 613c 4384 0f3b
00000180: 1112 0ebd 69ce a8bd ceb5 d63c 5026 f43c
00000190: ae4b 3b3d 7abe 69bc b3e6 42bc 60e8 3a3d
000001a0: db87 54bc 088d 143e 38f0 8ebd 3dd7 903d
000001b0: a3f9 e8bc 175d e5bd 6d92 743d aaff b7bd
000001c0: 9e22 1fbd 2439 fb3c 0cac aabd 2f1e a5bd
000001d0: b632 503d 4d97 24bd 3acd ea3d 146c 05be
000001e0: be81 18bd 31c1 35bd 42de 4b3d 3ba5 dbbc
000001f0: 8be2 c33d d0cd 3f3d 774f 933d f330 e73c
00000200: 9446 8f3d 2f5a 0b3d 3d35 abbc 2a78 033d
00000210: 4b5f 3e3d bfc6 9d3d 6433 afbd a778 e73c
00000220: 5af8 2cba e9a6 9f3d 57b3 c03d 3787 dd3d
00000230: 0fed 0dbd 9526 e03d 9ff4 dcbc 6ab4 e63c
00000240: 2879 73bd bebc 9e3c 2060 39bd 4c85 a33c
00000250: 5136 11bd eb36 513d 18be 913d 8cab b23d
00000260: f971 063d 01fd 743d a366 113d 63d6 77bd
00000270: 5047 3d3d f2ef 693d c505 dabc 45bc f3bd
00000280: 2c23 173d bf91 09bd 159a dc3b 6a26 4abd
00000290: 8717 efbc 262b d73d dfa6 6dbd 82ac 903d
000002a0: 17f5 d13d 0335 dbbc 76d5 b4bc 3c11 15be
000002b0: 850f 45bd ee50 d0bc 60a5 c83c ac7a b83c
000002c0: 01bb e9bc 2c63 1ebb 656a 49bc 5af6 dc3d
000002d0: 663f 6a3b 2c65 23bd 6925 6fbc 7557 f83c
000002e0: 8b80 eb3d 7ef7 893d b0ca c73d 8fd3 ccbd
000002f0: 2ac8 03bc 53a8 8b3d cd90 37bc 2585 ea3d
00000300: 1e8e cd3d 530d f83c 5cb4 603d ce53 13bb
00000310: bbdf b0bd 35b7 173d d8f5 813d 4d31 59bc
00000320: 210a ad3d f211 f4bc 52b3 df3d 8f8b af3d
00000330: 5fca 7a3d 4c4b bcbd 8e94 733d ff3d 133d
00000340: 851d 6e3d fe27 913d 8186 e53d 696e 3fbd
00000350: 80ce b23c 0115 fe3c 42f1 2b3d 0416 453d
00000360: 543f 093b 8534 6abc 9edf 473d 048c a33a
00000370: e991 733d 98b9 7bbd f759 1fbd 4f63 143d
00000380: 0091 053c 1384 9abc fd93 f1bc 4024 d6bd
00000390: cfbc d6bc 1857 ffbc 22ad d6ba 0f3b 8e3d
000003a0: 8096 063c 2a85 d6bb 2cfa a7bc 7016 99bd
000003b0: 4380 873d a1d4 c43d 1ec2 5ebd c17f 463a
000003c0: 814a ba3d b6ad f73d f459 1bbc e014 933d
000003d0: e4d8 92bd bc2f 84bd 25f2 17bd da7c ff3c
000003e0: ae88 4cbc ee8e 523d 079b f4bd 9138 d33c
000003f0: a252 d73d 8fe6 9d3d f5e5 e6bc 838a 603d
0.053997617 0.035502277 -0.00010927169 -0.11390155 0.055950157 -0.055670258 0.08948701 -0.02149304
-0.019994639 -0.099143 -0.052585315 0.042085648 -0.004346833 -0.089886606 0.002540825 -0.06477941
-0.0323848 0.030055396 0.09728651 -0.029037405 -0.028061306 -0.04918842 0.0835219 0.027341442
0.113535285 -0.08838618 0.21009214 0.14066893 -0.086524196 -0.11174169 0.04998773 0.04372323
-0.01882464 0.04093729 -0.031074485 -0.051090024 -0.113072544 0.032885034 0.071667925 0.056290165
-0.11988315 0.03477309 -0.07589651 0.066368476 0.040823884 0.098029725 0.0069929603 0.00624451
-0.011736869 0.038484074 -0.08329296 0.029718699 -0.07792394 -0.038380064 -0.05800993 -0.0025236555
-0.099524446 0.001878913 -0.045297056 -0.07888878 0.15031119 0.09240648 0.09723469 0.049876146
-0.09578215 -0.12318421 0.0010690482 0.06385154 0.0073304353 0.048950955 0.063768685 -0.03334229
-0.10433414 0.021239584 0.0563607 0.11344526 -0.0881245 0.06469988 -0.057576083 0.113921285
-0.08957729 -0.0065906444 0.007531151 0.10151664 -0.03994873 0.07117506 -0.09800329 -0.05847171
-0.03870099 0.104816645 -0.023878822 -0.012832239 -0.005207204 0.18837455 0.013774307 0.0021898902
-0.0346852 -0.082424946 0.026209738 0.029803425 0.04572647 -0.014266605 -0.011895823 0.045631766
-0.012971844 0.14506924 -0.06979412 0.070723034 -0.028439349 -0.11199396 0.059709955 -0.08984311
-0.038851373 0.030666895 -0.083335966 -0.08062398 0.05082961 -0.040183354 0.11464925 -0.1302951
-0.037233107 -0.044373695 0.04977251 -0.026812186 0.09564694 0.046827137 0.07192891 0.028221583
0.069958836 0.034021553 -0.02089941 0.03209702 0.046477597 0.077039234 -0.08554724 0.028255774
-0.00065982866 0.077955075 0.09409206 0.10816806 -0.034649905 0.10944859 -0.026972113 0.0281622
-0.059441715 0.019377109 -0.045257688 0.019961022 -0.03545219 0.051077764 0.07116336 0.08724126
0.032823537 0.059811596 0.035498273 -0.06050719 0.046210587 0.057113595 -0.02661408 -0.11901144
0.036898777 -0.03358626 0.006732235 -0.04935304 -0.029186023 0.10506277 -0.05802047 0.07064153
0.10251825 -0.026758676 -0.022074442 -0.14557356 -0.048110504 -0.025429215 0.02449292 0.022519432
-0.028531553 -0.0024167998 -0.012293433 0.10789175 0.0035743355 -0.039891407 -0.014596322 0.03031514
0.11499127 0.067366585 0.097554564 -0.10001289 -0.008043328 0.06819215 -0.011203957 0.114511766
0.10036872 0.030279791 0.054859504 -0.0022480371 -0.08636423 0.037039954 0.06345719 -0.013256383
0.084491976 -0.029793713 0.109228745 0.085715406 0.061228152 -0.09194049 0.059467845 0.035947796
0.05813362 0.07087706 0.11207295 -0.046736155 0.021826982 0.031015875 0.04197813 0.0481167
0.0020942288 -0.014294748 0.048797242 0.0012477641 0.059465323 -0.061456293 -0.038904157 0.03622752
0.0081522465 -0.018861806 -0.029489512 -0.10456133 -0.026213078 -0.03116946 -0.0016378502 0.06944858
0.008214593 -0.006546636 -0.020505033 -0.07474983 0.06616261 0.09610868 -0.054384343 0.00075721374
0.09096242 0.120936796 -0.009481896 0.07181716 -0.07170275 -0.06454417 -0.03709616 0.031187464
-0.012483759 0.05140584 -0.119436316 0.025783809 0.10513808 0.07709991 -0.028185824 0.054819595

net.2.bias f4 [128]
00000000: 22e9 0bbc 7d9b aa3c 09e6 4bbd 782b 513d
00000010: e4d7 443c 3fcf b7bd 3390 c03d 7aed a33d
00000020: 927f 833c cc9f 143e 4589 45bd c4b4 a7bb
00000030: 59e5 a13b 88f1 ba3c 83d5 a4bd 7bdc 2c3d
00000040: 7b6e 25bd 6c03 cabc b8e5 76bd c5a5 24bd
00000050: 9564 293d 59af ae3d 68d0 cd3c d59f 703c
00000060: 12f8 2fbc 3c5b 96bb e4d0 abbd 84f1 5cbc
00000070: 482d 03bd c87a 053b 6bf6 dc3d d2a0 ba3d
00000080: 4750 0cbd 88ea 023d 371f 663d 7435 6b3c
00000090: 5fc6 4abb b66b cbbd 3906 16bc 8a7e c8bb
000000a0: c683 2d3c c2c7 c3bd 7173 cdbc c8b5 463b
000000b0: d7e4 0bbd d33f 023c 08c8 bf3d 8c41 783d
000000c0: 89be a9bd 636d f8bc fb86 7b3d 8002 a73d
000000d0: 9213 94bd 7f1b 2dbd 5653 513c aa94 963b
000000e0: 7c4e 303d 9441 463b 310d 84bb 15b6 eebc
000000f0: d561 b33d 0dd2 acbd 165d a6bc 0e75 c6bd
00000100: 130c a6bd 67b6 b73c 1fe2 99bc 5ecf dd3d
00000110: 4f38 043e 69ed df3b 4e02 b5bc f7b6 4f3d
00000120: a3d9 d83c 5243 963b 2871 fdbc 224c d8ba
00000130: eb0e 923c 19e3 413d 0790 023e 454f d33d
00000140: 99c3 0fbc feff bc3d c0ca 873c a90f 4abd
00000150: eed5 33bd 8caf cd3d 6f5d e23c 4024 a6bd
00000160: 5c7b 8f3c 118a 213d 89f8 8a3d 3a65 07bd
00000170: f460 b1bd ae01 053d 039a 40bd 4be9 00bd
00000180: e4b9 7c3c 9f07 d73d 6697 9b3c 5600 a8bd
00000190: 5ab1 5bbd 1d2f 163d 8b8a 733d e581 d13b
000001a0: 910c 30bd a472 333d 67a0 ba3d 256f 37bd
000001b0: 3831 3a3d 0e75 543d 3d6b 823d e35e 88bb
000001c0: 6acd b7bd ab8a 67bd 9ce8 983d aac2 f0bb
000001d0: eb44 cc3d 0fc1 aa3d 426d 3cbd df5f d83c
000001e0: 6a61 07bd 6006 ca39 a7d8 a33d a92a e93d
000001f0: 0ce5 fa3c 91e5 453d 9d2b 9dbb 61da bd3d
-0.00853947 0.020826096 -0.049779925 0.051066846 0.012014363 -0.08975076 0.09402504 0.080042794
0.016052041 0.14514083 -0.048226614 -0.0051179845 0.0049406704 0.02282025 -0.08048537 0.042202454
-0.040388566 -0.024659835 -0.06027767 -0.040197153 0.041355688 0.08529539 0.02512379 0.014686544
-0.010740297 -0.0045885127 -0.08389452 -0.013485316 -0.032025605 0.0020367373 0.10789188 0.09112705
-0.034256246 0.031961948 0.056182113 0.014356006 -0.0030940992 -0.099326536 -0.009156757 -0.0061186003
0.010590499 -0.09559585 -0.02507946 0.0030320752 -0.034153786 0.007949787 0.09364325 0.060609385
-0.08288295 -0.030325597 0.061408024 0.08154774 -0.07230295 -0.04226255 0.0127762165 0.004595359
0.0430436 0.003025149 -0.004029893 -0.029139558 0.08758894 -0.084385015 -0.020308059 -0.09690295
-0.08107772 0.022425843 -0.01878458 0.10830568 0.12912105 0.0068337214 -0.022095826 0.0507116
0.026470965 0.004585662 -0.030937746 -0.0016502182 0.017829379 0.047335718 0.12750255 0.10317854
-0.008774661 0.09228514 0.01657617 -0.04933134 -0.04390519 0.100432485 0.027632443 -0.08112383
0.017514877 0.03943831 0.067856856 -0.03305552 -0.086610705 0.032472305 -0.047021877 -0.031472486
0.015425179 0.104995005 0.01899309 -0.08203189 -0.053635933 0.036666024 0.059458297 0.0063936585
-0.042980734 0.0438105 0.091126256 -0.04478373 0.045457095 0.051869445 0.0636811 -0.004161702
-0.089747265 -0.05652873 0.07466242 -0.0073474245 0.099740826 0.08337604 -0.046002634 0.026412902
-0.033051886 0.00038533192 0.080003075 0.1138509 0.030626796 0.048314635 -0.004796459 0.09270168

net.4.weight f4 [5, 128]
00000000: 6394 19be df00 953d c790 5c3d d25e 75bc
00000010: 9d98 e4bd f23f 8f3d 6ee0 c3bc 50a6 d33a
00000020: ce5a f8bb 3c71 f03c 7add 81bd d4eb cbbd
00000030: b6cb 4cbe f694 80bb 958c a9bc f1d9 7d3d
00000040: 884a a0bd e558 23bc d479 b5bd a186 38bc
00000050: 9822 8b3d 9984 363c 770d 853d 5d6b b33d
00000060: 20c5 e93b d090 863d dc3e ad3c 6899 9c3d
00000070: d8aa 6cbd f968 ac3d f7df b43c b9d4 ec3c
00000080: c016 68be ab71 da3c d95b eb3c abd3 48bd
00000090: e325 ea3d de73 093e 048c 113d b86c 893a
000000a0: cd5c 363c 6fac 7ebd e082 abbd 2a14 6b3c
000000b0: 99b5 0b3d 7bdf ff3d 8662 953d eb6c 2abd
000000c0: aed2 92bd e86c a83c bd2b babc a581 1fbe
000000d0: 0796 bd3d 99b0 b7bc bd50 55bd 2533 003e
000000e0: 08b3 5ebe 7668 6ebd 1eb4 923d 2ad4 693d
000000f0: 8d51 9ebd 87cc e9bb 9c8b 16be 8247 103b
00000100: bb7e a5bc 59d9 8abd 820e 28be 9f4c 483d
00000110: 78fd 78bd b11a 4a3c 02ad cb3d caca 8cbd
00000120: abc9 a33d 1571 a83c 2675 55be 4ad2 83bd
00000130: fc1b e4bb dc04 c9bd 2351 093d 1278 853c
00000140: 962f 82bc 0b98 943d b50b cabb 0a31 a13d
00000150: 26ef b43d 9c5b d13d f2d9 d53d 2b54 27bd
00000160: 1e69 1f3c 3b43 f93b 3331 823d 0273 7a3d
00000170: 825c c93c 2d51 c8bc 4fc9 543d 4559 88bd
00000180: 5e11 04be e11f 23bc ebc0 113d aa8d 93bc
00000190: 441a ad3d ca69 193c 702f 1a3d c8ee c63c
000001a0: fdff 003c d261 19bc 5cf3 5ebe 1f8b 7dbd
000001b0: be4a 9f3c 410d 513d b1e0 203c ffb8 893d
000001c0: 362d 803d 6f4d a4bd 066e a3bd c71d 873d
000001d0: 17c7 8dbd f393 623d a70d 95bd 9195 873d
000001e0: 4a5a 1fbe b3ed f03c 9940 03be 9cee 17bd
000001f0: 1056 243d 28af 233d fcb8 65bd e533 943d
00000200: be5b e4bd 0565 30be d09b c53d 5bdb be3b
00000210: ac95 a13d b2f3 5d3c f901 e63c e2ff 6fbe
00000220: bc7b 853d 74c7 883d 7bc4 dbbc 615d dcbd
00000230: 616e 013d d84e 843d 5de1 c03b 24c6 d1bd
00000240: 0d50 e03d 7d53 493d 0f5f 35bb dc23 fc3b
00000250: 8b04 e03d 1c85 e5bd 9b4c 03be 9317 1ebe
00000260: c231 233d ab2b 28be 004d c23a d2e9 2abe
00000270: e6d4 7d3d bf09 02be 5bcc d5bd 4504 edbd
00000280: 6c92 e33c a34a a2bd 917a 03bc 33ad 9b3c
00000290: 22d6 cabd 38c0 99bc 051c c5bd b3ac 54be
000002a0: d1fa 91bc 7d89 743d 031f 01bc 5bd9 d83d
000002b0: 4ee6 3bbd 8c7c 8d3d 844b b23d 76a0 873c
000002c0: 937f 453d 421c 73bd e1fd cbbd 5e68 d6bb
000002d0: 2a2b fdbd cce5 db3d 47a4 2dbe 8552 03be
000002e0: 673b c83c 6d3b b5bd 08c4 41be c359 083e
000002f0: f444 48bd bffe 883c 9d66 c93d 7d3d 833d
00000300: d1ed 59bd 24ad 63bd d4d4 113e abaa e3bd
00000310: de0e 26be 525f 2fbe ac9d 003e 861a e33d
00000320: 613a 25be fca2 70be ea88 dabc bcb1 66be
00000330: c1f6 d73d b595 8fbd 8f16 29be 0437 24be
00000340: 1a0b dd3d c980 05be 9c0e 68be 01fe 483d
00000350: 715b 7e3c b577 1cbe 36c4 ce3d 050f 7cbc
00000360: 53a8 94bd 3f8d 4bbe fee9 13be 4e47 49be
00000370: 2a2d 543c 869c 0cbd 86c3 073e 680f 3dbd
00000380: b3fa f43d 098f 073e 8135 f6bc 3f57 0abe
00000390: 7ce0 393d 9a3f 20be dd2b a53d 3d43 683d
000003a0: 5913 1fbe c3b6 abbd b4ed 693d e49a 373d
000003b0: f1a7 39bc b0f2 053d f07a 073d b1d8 003e
000003c0: 4488 ac3c 7370 8cbd 33a6 e63d e0ef 353d
000003d0: 33ee 463d 9b2b c3bd 8a52 0e3e 3831 783c
000003e0: 09bd f2bd 9bb7 32be b73a 37bd 93a0 6cbd
000003f0: 3b1f d83b d16f 89bd e20d 4b3d c75d 80bc
-0.14998011 0.07275557 0.053849008 -0.01497622 -0.11161921 0.069946185 -0.023910727 0.0016147587
-0.007579184 0.02935087 -0.063410714 -0.0995709 -0.19999585 -0.0039240075 -0.020696918 0.061975423
-0.07826716 -0.009969925 -0.088611275 -0.011262567 0.067937076 0.011140012 0.06496709 0.08760712
0.007134095 0.065705895 0.021148138 0.076464474 -0.057780117 0.084184594 0.022079451 0.028910028
-0.22664928 0.02666553 0.02873032 -0.049029987 0.114330076 0.13423106 0.03553392 0.0010484671
0.011130524 -0.062176164 -0.08374572 0.014348069 0.034108732 0.124937974 0.072941825 -0.04160778
-0.0716909 0.020559743 -0.022725934 -0.15576799 0.09257131 -0.022423076 -0.05207895 0.1251951
-0.21747983 -0.05820509 0.07163261 0.0570871 -0.07730398 -0.0071349773 -0.14701694 0.0022015278
-0.020202031 -0.06779737 -0.16411784 0.048901197 -0.0607886 0.012335465 0.09945108 -0.068746164
0.079974495 0.020561734 -0.2084547 -0.06436594 -0.006961344 -0.0981538 0.033524644 0.016292606
-0.015891831 0.072555624 -0.0061659464 0.078706816 0.088346764 0.10222551 0.104419604 -0.040851753
0.009729652 0.0076068914 0.0635704 0.061144836 0.024580244 -0.02445277 0.051949795 -0.06657652
-0.1289725 -0.009956331 0.03558437 -0.018011887 0.084522754 0.009363601 0.037642896 0.024283782
0.007873532 -0.009361701 -0.21772522 -0.061900254 0.01944482 0.05103803 0.009819196 0.06724738
0.06258623 -0.08022582 -0.0797997 0.065974765 -0.06922739 0.055316877 -0.072779946 0.066203244
-0.15561786 0.029410219 -0.12817611 -0.03709279 0.040121138 0.039961964 -0.056084618 0.072364606
-0.11150311 -0.17226036 0.096488595 0.005824489 0.07889876 0.013546871 0.028077113 -0.23437455
0.06517741 0.06678668 -0.026827088 -0.10759998 0.031599406 0.06460351 0.0058862404 -0.102428705
0.109527685 0.049151886 -0.0027675068 0.0076947045 0.109383665 -0.11207029 -0.12822191 -0.1543868
0.039842375 -0.16422908 0.0014823973 -0.16690758 0.061970614 -0.1269903 -0.10439368 -0.1157308
0.02777978 -0.07924392 -0.008024828 0.019003486 -0.09904124 -0.018768415 -0.09624485 -0.20769005
-0.017819794 0.05970143 -0.007880929 0.10588332 -0.045873933 0.06908521 0.0870581 0.016556006
0.048217367 -0.05935312 -0.09960533 -0.0065432033 -0.123617485 0.1073719 -0.16957198 -0.12824447
0.024442388 -0.08849225 -0.18922436 0.13315491 -0.048893884 0.016723035 0.09834025 0.06408212
-0.053205315 -0.05558504 0.14241344 -0.11116537 -0.16216609 -0.17126206 0.12560147 0.11089043
-0.16135551 -0.23499674 -0.026676614 -0.22528738 0.105451114 -0.07010976 -0.16512512 -0.16036612
0.10793133 -0.13037409 -0.22661823 0.049070362 0.015524731 -0.1528004 0.10096018 -0.01538444
-0.07258668 -0.198781 -0.1444473 -0.19656107 0.012950221 -0.03432896 0.1325818 -0.04615727
0.119618796 0.13238157 -0.03005481 -0.13509844 0.0453801 -0.15649262 0.08065007 0.05670475
-0.15534724 -0.083844684 0.057111457 0.04482545 -0.011331544 0.032702148 0.033076227 0.12582661
0.02106107 -0.068573855 0.11262169 0.044418216 0.04856701 -0.095298015 0.13898674 0.015148453
-0.11852462 -0.17452852 -0.04473373 -0.057770323 0.00659552 -0.067107804 0.049573787 -0.015669717

net.4.bias f4 [5]
00000000: 32e8 383d 0da1 a1bc 1070 2a3d ff5b ef3d
00000010: db1c 0c3d
0.045143314 -0.019730115 0.041610777 0.11687469 0.034207206
