CI_DRL/pg_drl_model_best.pth (torch, 75500 bytes, 6 tensors)

net.0.weight f4 [128, 7]
000000 79 f9 ae 3e b9 dd a9 3e 0b 07 12 be 4b ce d3 3e
       0.34174708 0.33176973 -0.14260499 0.41368327
000010 84 b6 e9 bd 75 35 ca 3d 26 0e 41 be 6f 2a 33 3e
       -0.11411765 0.09873477 -0.18853053 0.17496656
000020 06 e8 c4 3e 2c bf a6 be 0c 62 c6 3e 49 cb 2c 3e
       0.3845827 -0.32567728 0.3874668 0.16874422
000030 2e cf 92 3e b6 18 74 3d 54 1c 40 3e 39 18 32 bd
       0.2867369 0.05959388 0.18760806 -0.04348013
000040 b9 41 b9 3e b3 8c 03 3e 87 8a 76 be 2c 8a 04 3e
       0.36182955 0.12846641 -0.24076281 0.12943333
000050 cd 54 48 be bd 2c 5c bd 9b cc 12 be 66 53 99 3e
       -0.19563599 -0.053753603 -0.14335863 0.2994644
000060 9f 87 cd be 75 9d 62 be 15 e5 d8 bd 1f 2b 69 be
       -0.40142533 -0.22130378 -0.10590569 -0.22770356
000070 e3 1a ae bb e6 f2 ac be 8c 8f 94 3e bc 3d e1 be
       -0.0053132637 -0.33779067 0.29015768 -0.43992412
000080 d2 79 aa 3e 40 74 63 3c eb fd f5 bd 45 aa 52 3e
       0.33296067 0.013882697 -0.12011322 0.20572765
000090 88 03 cd 3c 0f a4 ab 3e a0 c1 d9 3c d4 13 d5 bd
       0.025026098 0.33523604 0.026581585 -0.104041725
0000a0 fa 49 c5 3d a9 2a cd bd ad fb ff 3d 72 fd 98 3e
       0.096332505 -0.100179024 0.12499175 0.29880863
0000b0 ba 00 67 3e 32 a2 5a be 0a 92 a3 3e 91 38 92 3d
       0.22558871 -0.21350935 0.31947356 0.071396954
0000c0 c6 c6 1e 3e 5b b5 7b be c6 ba bb be ea c6 21 be
       0.15505514 -0.245809 -0.36665934 -0.15798536
0000d0 70 17 c2 be c5 36 c6 3e c0 26 27 3e 6b 83 19 3e
       -0.37908506 0.3871366 0.16323376 0.14991538
0000e0 ae 61 a8 3d 04 4a 88 3c 65 96 9c 3e 10 2b c2 be
       0.08221756 0.016636856 0.30583492 -0.3792348
0000f0 47 67 5b 3c 75 f8 78 be 43 fd e9 3d 02 54 1f be
       0.013391322 -0.24313529 0.11425259 -0.1555939
000100 6f cb a0 3d fe e5 2c bd 10 46 d4 3e bd 85 83 be
       0.07851302 -0.042211525 0.41459703 -0.25687972
000110 ea 8d 4b be d2 c3 6b be a3 a9 9f 3e e9 2a d8 3d
       -0.19878355 -0.23023918 0.3118411 0.105550595
000120 75 0c bd 3e af 7d bc be 35 e9 ef be 75 c5 86 be
       0.36923566 -0.3681464 -0.4685761 -0.26322523
000130 a7 6f 90 be 4c 5c 05 3e d3 65 ef 3d c3 1a ac 3e
       -0.28210184 0.1302349 0.11689343 0.33614168
000140 f9 3d 66 be 19 a0 a7 be 75 83 35 3e 93 65 fc bd
       -0.22484578 -0.32739332 0.17725928 -0.12324061
000150 37 3d 2b 3e 19 75 b8 bd 15 8f 58 3e fc 3d cd be
       0.1672257 -0.090067096 0.21148331 -0.40086353
000160 e4 66 7e be 01 0c 0a 3e a1 a6 50 3d f4 8e c3 bd
       -0.24843937 0.13481142 0.05094016 -0.095487505
000170 14 0b 7b 3e 8a b0 7b 3e 65 19 94 be 17 fd 76 be
       0.24515945 0.24579063 -0.28925624 -0.24119984
000180 16 25 b8 3e e7 ba a0 bd b4 ac d2 bd 4a e7 de be
       0.35965794 -0.07848149 -0.10286847 -0.43535835
000190 75 d6 87 be 1c ed d6 3d 71 93 b1 bb a7 c0 ab be
       -0.26530805 0.10494444 -0.0054191877 -0.3354542
0001a0 20 86 2a 3c 3a 93 87 be eb a8 97 be 3c 57 6a be
       0.010407954 -0.26479512 -0.29621062 -0.2288484
0001b0 ac 3e d8 be d9 3b 94 be 46 00 b7 3e aa 8d 86 3d
       -0.42235315 -0.2895191 0.35742396 0.06569989
0001c0 26 be e4 3d f3 54 b6 be 84 92 7b be cc 90 1f be
       0.111690804 -0.35611686 -0.2456761 -0.1558258
0001d0 35 c8 f2 3d 8a 6b bd be aa 91 2d be 5a fa 46 be
       0.11854593 -0.36996108 -0.16950098 -0.19431439
0001e0 3e 2a 88 3c e2 75 53 be ad 20 8a bc 75 60 82 be
       0.016621705 -0.20650437 -0.016861284 -0.25464216
0001f0 7e 79 8c be a6 18 74 be 77 6f bb bd 62 56 88 be
       -0.2743644 -0.23837528 -0.091521196 -0.26628405
000200 89 2e 9d 3e 0e c9 f0 bd 51 90 ef 3e 6a f5 cf 3d
       0.30699566 -0.11757098 0.46789792 0.10154231
000210 fd 35 81 be 16 75 48 3e ad 3a a3 bc 11 4a ad bd
       -0.25236502 0.19575915 -0.01992544 -0.08461393
000220 c6 94 c3 be 63 b0 00 bf 73 1b 84 3d de ed 70 bd
       -0.38199443 -0.50269145 0.06450548 -0.058820598
000230 c4 fa a4 3d 2e 09 a6 be 6b b3 89 3e 66 b7 cf be
       0.08055642 -0.3242888 0.26894698 -0.4056961
000240 56 e9 2a 3d b6 4d db 3d 0d a3 47 3e d0 eb 84 3e
       0.041726433 0.107081816 0.19495793 0.2596116
000250 e2 38 af 3e 3d 89 cb be 38 25 0d 3e 9d d3 15 be
       0.34223086 -0.39753142 0.13783729 -0.14631505
000260 81 9e 54 bd 84 83 8d be e1 aa b0 3e 7b ac a4 be
       -0.051908974 -0.276394 0.3450537 -0.32162842
000270 80 f7 58 3e 99 9a dd 3d 4d 9e 87 3e ba 39 8c be
       0.21188164 0.10820503 0.2648796 -0.27387792
000280 af d1 a3 3e ab 9a 04 3e 64 1e 64 3d 9f 8f c9 be
       0.31995913 0.12949626 0.055693045 -0.39367387
000290 6f ea 4b 3e e9 62 d8 ba ac 57 5c be ab 20 ab 3e
       0.19913648 -0.001650897 -0.21517819 0.3342336
0002a0 7b b4 fa 3d ba 40 82 be 45 55 51 be 74 d9 bc 3c
       0.12241455 -0.25440007 -0.20442684 0.023052908
0002b0 00 d3 74 3e c9 87 c7 bd d7 44 5b be 60 d2 c6 bd
       0.23908615 -0.09742696 -0.21412979 -0.097080946
0002c0 11 8a 91 be 5f 9f d0 3d 7c 25 a2 3e 9a 2a cf be
       -0.2842565 0.101866476 0.31669223 -0.4046219
0002d0 24 15 ca 3d 0e 30 4b 3e da 78 a2 3d 11 93 02 be
       0.098673135 0.1984255 0.07933207 -0.12751414
0002e0 54 bd 92 3e c8 6d 55 3e 3c 79 8a 3e fe 71 0e be
       0.2866007 0.2084266 0.2704562 -0.13910672
0002f0 89 a5 69 bd 0a e3 fb 3c c6 5a 8c 3b 65 da 9a bd
       -0.057042632 0.03074791 0.004283282 -0.07561187
000300 a1 c0 8c 3e fa fc 04 3f 4f 47 06 bd 4b e0 53 bd
       0.27490714 0.5194851 -0.03278285 -0.051727574
000310 71 f5 6e bb 2b 03 81 bc 33 4d 77 3d 1e be 5f 3d
       -0.0036462212 -0.01574858 0.060376357 0.05462467
000320 b9 b9 ad be 90 2c 0d be d8 6f a0 3e e3 df d5 3d
       -0.33930758 -0.1378653 0.3133533 0.10443094
000330 30 e7 36 3d 77 f8 6a be 09 b5 a0 be fc d2 eb be
       0.04465407 -0.22946344 -0.3138812 -0.46059406
000340 33 5b f3 bd 57 7f ae 3d b1 92 77 3e 6a 64 62 3e
       -0.11882629 0.08520382 0.24177052 0.22108617
000350 d3 0c c5 be ab ae 67 be 4c 85 74 bd e0 ef bb 3e
       -0.38486347 -0.22625224 -0.059697434 0.36706448
000360 f6 8b 98 3d 4e ef c2 bd 12 ba 1b 3e 96 d0 3d be
       0.074485704 -0.095183 0.15207699 -0.185366
000370 ba a1 9a be 83 f6 bd 3e 7b fe 13 be 95 0f 93 bd
       -0.30201513 0.37102136 -0.14452545 -0.071807064
000380 61 7a cc be d5 6e 70 3e 10 1d 8e 3e cb ba 16 3e
       -0.39937118 0.23479779 0.27756548 0.14719693
000390 01 2e 8b be 2c 32 d0 be 66 2e a1 be 84 45 9e 3e
       -0.27183536 -0.40663278 -0.31480712 0.3091241
0003a0 54 a7 55 3e 70 6c 8b 3e c7 5a 46 3e 77 24 70 3e
       0.20864612 0.2723117 0.19370566 0.2345141
0003b0 0a 00 b0 3c 75 ba 87 be 69 1a a7 be b2 4a b4 be
       0.021484394 -0.26509443 -0.32637337 -0.35213238
0003c0 f0 09 19 3e 16 78 69 be 5b e5 94 bd 88 38 66 be
       0.14945197 -0.22799715 -0.072703086 -0.22482502
0003d0 14 6f 81 bd 3c e3 75 be 25 50 7c be f6 2a 00 3e
       -0.063200146 -0.24012464 -0.24639948 0.12516388
0003e0 01 a3 37 be 59 b9 90 3e 45 ee 14 be 50 9c 8a be
       -0.17933275 0.2826641 -0.14544018 -0.27072382
0003f0 24 3e bf bd 6f 91 0e be 69 e5 08 be 1f a2 fb be
       -0.09338024 -0.13922666 -0.13368763 -0.49147126

net.0.bias f4 [128]
000000 b5 d5 83 bd 7c 70 a7 bd bd ff b3 bc b2 c2 c1 bd
       -0.06437246 -0.081757516 -0.021972531 -0.09460963
000010 b1 7d b6 3e ec ef 65 3e ac 6a c5 3e 48 57 0c 3d
       0.3564277 0.22454804 0.38557947 0.034262925
000020 c3 8f 10 3e 84 98 40 3e 7e cd a2 be 1a 70 83 3d
       0.1411734 0.1880818 -0.31797403 0.06417866
000030 e4 72 0f 3c a6 ef 3a be d1 85 53 be ab db ce 3e
       0.008755419 -0.18255481 -0.20656516 0.40401968
000040 05 32 c7 3e 6c 15 69 3e fd 14 cd 3e 12 63 f1 bd
       0.3890535 0.22762078 0.40055075 -0.11786474
000050 e8 ba 81 bc 8d 58 67 3e 01 8a 27 bb 95 82 0a 3c
       -0.015836194 0.22592373 -0.0025564434 0.008453985
000060 49 05 8e be 20 0e 09 3e 0f 47 21 be 65 86 c6 3d
       -0.27738407 0.13384295 -0.15749763 0.096936025
000070 3a e4 e1 3e 33 fb 36 bd 87 93 98 bd 17 90 98 3e
       0.44119436 -0.044673156 -0.074500136 0.29797432
000080 5f 82 df bd 76 0d 8e 3c fc a2 d6 3e 04 7f 14 be
       -0.10913538 0.017340403 0.41921222 -0.14501578
000090 54 86 46 be b0 e4 02 be 05 c6 b4 bd 1f 26 fa bd
       -0.1938718 -0.1278255 -0.08826832 -0.12214302
0000a0 36 a5 1c be 4c 91 5d 3e 78 6e 00 3e 92 4f 6e bd
       -0.15297398 0.21637458 0.1254214 -0.058181353
0000b0 ae 23 66 be b4 62 8b bd da 18 b9 bd 50 61 c9 bd
       -0.22474548 -0.068059355 -0.09037943 -0.09833014
0000c0 79 a7 99 be a7 17 00 3e 70 d8 4e be 00 c2 7d be
       -0.30010584 0.12509023 -0.20199752 -0.24781036
0000d0 02 42 80 be d6 97 42 3e be 5f 48 be b1 0d ad bd
       -0.2505036 0.19003233 -0.19567773 -0.08449877
0000e0 e6 07 bb 3e e3 fc 4f 3e 46 47 88 3e 50 34 99 be
       0.36529464 0.20311312 0.26616877 -0.29922724
0000f0 4a 72 29 be d5 d1 e2 bd 16 34 a9 3e fa eb e6 3d
       -0.16547504 -0.110751785 0.3304755 0.11275478
000100 b6 f4 7b be 21 df 18 3c 11 3d 7f be fc fe 12 bd
       -0.24605069 0.009330542 -0.24925639 -0.035887703
000110 fe 6d 28 bc d5 f5 c7 3e 9f 41 27 3e 7c 37 34 bd
       -0.01028013 0.39054742 0.16333626 -0.043998227
000120 bb 54 0d 3e 8c 56 56 bd 37 35 5c 3e 28 19 32 3e
       0.13801853 -0.05232863 0.21504675 0.17392409
000130 a3 6d 13 3e 17 bb 2a be 8a c6 9e 3e 21 84 5c ba
       0.14397292 -0.16672932 0.31010848 -0.0008412023
000140 ae c8 c7 bd dd d3 a7 3e f1 14 bb 3e 02 2b dc 3e
       -0.097550735 0.32778826 0.36539415 0.43001562
000150 27 7f 67 3e e8 59 91 bd d5 bb 80 3e 3e 0b a4 3e
       0.22607099 -0.070972264 0.25143304 0.32039827
000160 12 e2 93 be ef 99 d3 3b 21 5f 40 be 49 2d 0a 3e
       -0.28883415 0.0064575593 -0.18786289 0.13493837
000170 67 28 50 3e 79 83 fe bc bf 60 2c 3c 35 42 93 3e
       0.20327912 -0.03106855 0.010521113 0.2876145
000180 8a e3 09 3c 00 ae 86 be a3 b4 b6 3e a4 52 e1 bd
       0.008416066 -0.26304626 0.3568469 -0.110020906
000190 a2 c2 43 bd b2 86 a7 3d e3 1b 1c 3d d2 9e b5 be
       -0.04779304 0.08179988 0.038112532 -0.35472733
0001a0 a2 5b 5b 3e f1 e3 f8 bd 48 94 29 be 8f c1 bd 3d
       0.21421674 -0.121528514 -0.16560471 0.09265434
0001b0 0b 73 ea bd 2a 5f ea bd ed 32 ed bd 9b 86 04 be
       -0.11447724 -0.11443932 -0.11581979 -0.12941973
0001c0 14 7a ee bd 89 17 8e bd a1 52 22 3e f4 3f 84 be
       -0.11644378 -0.06938083 0.15851833 -0.25830042
0001d0 82 8e 3a be 8b 56 cf 3c c9 0e df 3d 10 83 68 3e
       -0.18218425 0.025309822 0.10891492 0.22706246
0001e0 1f ec 4c be 04 4b 0e 3e 17 3e 6f 3e bb e1 85 3e
       -0.20011948 0.13895804 0.23363529 0.2614878
0001f0 86 de 74 be 63 94 91 bd e9 11 91 be a0 8a 4a be
       -0.23913011 -0.07108381 -0.28333977 -0.19779444

net.2.weight f4 [128, 128]
000000 d7 7b 57 3d 4a c6 0a 3d 93 16 8d ba 7a b0 e9 bd
       0.052608337 0.03388051 -0.0010764174 -0.11410613
000010 88 42 64 3d a5 f4 6a bd ce 72 b4 3d d6 fb af bc
       0.05572751 -0.057362217 0.0881096 -0.02148239
000020 ac db a3 bc 9a 46 cc bd 39 7c 58 bd 38 30 26 3d
       -0.020002209 -0.09974404 -0.052852843 0.04057333
000030 01 b0 bd bb 86 b2 ba bd 70 06 78 3b 30 ec 85 bd
       -0.0057888036 -0.09116082 0.0037845634 -0.0653919
000040 72 ca 01 bd 5d 65 f5 3c 5d fd c5 3d 72 3a f0 bc
       -0.031687208 0.02995556 0.09667466 -0.029324744
000050 4d 6a e9 bc eb 6f 4c bd 15 22 aa 3d 93 00 db 3c
       -0.028493071 -0.04991142 0.08307282 0.026733672
000060 07 9e e9 3d 72 fe b5 bd 55 8b 56 3e fd 1e 0f 3e
       0.114070944 -0.08886422 0.20951588 0.13976665
000070 9c 9f b2 bd 76 1f e4 bd 0a 7c 49 3d cf c8 32 3d
       -0.08721849 -0.11138813 0.04919056 0.043648537
000080 df 36 9b bc 17 ad 20 3d 9d d7 f8 bc 10 d0 4e bd
       -0.018947063 0.03922757 -0.03037625 -0.050491393
000090 e3 bc e5 bd 0c 6e 01 3d 52 63 94 3d ba 50 64 3d
       -0.11217668 0.03159909 0.07245506 0.05574105
0000a0 1f 09 f5 bd cd d9 0b 3d d1 98 9a bd cb 0b 89 3d
       -0.1196463 0.034143258 -0.07548679 0.066917025
0000b0 58 d0 24 3d 63 a3 c7 3d db ff ec 3b f2 0c a5 3b
       0.040237755 0.097479604 0.007232649 0.0050369436
0000c0 53 22 4a bc 76 8b 1f 3d 84 0b ad bd ff 20 fb 3c
       -0.012337285 0.03895136 -0.08449462 0.030655382
0000d0 c6 0f a1 bd 42 20 20 bd 0d 56 73 bd 8d 7f 21 bb
       -0.07864337 -0.039093263 -0.059408236 -0.0024642677
0000e0 49 c2 ce bd 42 c5 dc 3a 3d ab 37 bd 63 5f a1 bd
       -0.10095651 0.0016843455 -0.04484104 -0.07879522
0000f0 ed 55 19 3e 36 ef be 3d 43 32 c5 3d 4e 66 48 3d
       0.14974184 0.093229696 0.09628727 0.04892569
000100 89 ec c5 bd b7 d7 fc bd 61 ec 9e 3a a4 01 7f 3d
       -0.09664256 -0.12345832 0.001212489 0.062257424
000110 10 a7 01 3c 46 f0 42 3d c0 bb 7d 3d 64 18 0e bd
       0.007913366 0.047592424 0.06194663 -0.03469123
000120 ad 75 d6 bd 6e bd a5 3c 11 93 5e 3d bf c5 e5 3d
       -0.104716636 0.020231929 0.054339472 0.11219358
000130 ef 5a b7 bd 7f 37 81 3d 34 b2 73 bd 58 58 e6 3d
       -0.08952891 0.06309413 -0.05949612 0.11247319
000140 ba 32 b8 bd a1 00 be bb 99 91 dc 3b 31 3a cf 3d
       -0.0899405 -0.005798415 0.006731224 0.10118521
000150 42 b2 28 bd cb e4 91 3d b4 85 c7 bd e7 c2 72 bd
       -0.041185625 0.07123717 -0.09742299 -0.059267905
000160 b5 d2 1d bd 44 22 d8 3d 85 f1 c2 bc a2 9d 5f bc
       -0.038531024 0.10553411 -0.023796806 -0.013648422
000170 94 a8 91 bb ce e4 3f 3e e5 20 52 3c 30 f9 48 3a
       -0.004445145 0.18739626 0.0128252255 0.00076665264
000180 0c b8 10 bd bc 2f a9 bd 36 58 d0 3c 33 46 e9 3c
       -0.03533177 -0.08261058 0.025432687 0.028475856
000190 9d 52 3e 3d f1 e3 78 bc 22 fe 4c bc 51 ca 35 3d
       0.046465505 -0.015191064 -0.012511762 0.044382397
0001a0 cf 9a 57 bc 76 64 13 3e 1f 05 8f bd 22 01 8e 3d
       -0.013159468 0.14393792 -0.06983399 0.0693381
0001b0 7b a2 ed bc ab c9 e2 bd 8c e9 74 3d 87 63 ba bd
       -0.02900814 -0.11073621 0.05979304 -0.091010146
0001c0 f8 5e 22 bd 4d 35 f8 3c 32 6c ad bd 54 d0 a3 bd
       -0.03964135 0.030298853 -0.08467902 -0.0799872
0001d0 af 5a 48 3d dc f6 28 bd 47 ef e9 3d 82 95 05 be
       0.048914608 -0.04125105 0.11422592 -0.13045314
0001e0 88 8e 14 bd 30 46 37 bd 07 c1 44 3d e8 ed e3 bc
       -0.03626874 -0.04474467 0.048035648 -0.027823403
0001f0 f1 04 c3 3d fe dd 38 3d 87 c5 90 3d df 3a dc 3c
       0.09522427 0.045133583 0.07068925 0.02688354
000200 30 bb 8e 3d 8e 4b 0c 3d e0 ea a7 bc d8 bd 06 3d
       0.06969297 0.034251742 -0.02049774 0.032895893
000210 b7 da 42 3d 85 e6 9e 3d f3 ce ad bd bf c0 ed 3c
       0.047571864 0.07758812 -0.08486738 0.029022573
000220 80 71 3f 3a af a1 9d 3d da 89 c2 3d 2f ce dd 3d
       0.00073029846 0.07696854 0.09498949 0.10830342
000230 b0 7f 0b bd 68 07 df 3d be f4 e0 bc 95 ed e6 3c
       -0.03405732 0.108900845 -0.027460452 0.02818946
000240 f4 10 70 bd 3d e4 97 3c ff d1 36 bd c2 7f a3 3c
       -0.058609918 0.01854145 -0.04463386 0.01995838
000250 ae a0 0c bd 4e 1d 4f 3d 03 11 95 3d 08 d0 b2 3d
       -0.034332924 0.050565057 0.07278635 0.08731085
000260 62 53 05 3d ef 8b 75 3d d9 1d 14 3d 21 d9 74 bd
       0.032550223 0.059947904 0.036161277 -0.059777383
000270 14 56 3e 3d c4 a2 69 3d ba d2 de bc 72 81 f2 bd
       0.04646881 0.05703999 -0.027200092 -0.11841096
000280 fe d6 14 3d 7a 2b 05 bd a9 a4 eb 3b e5 b2 48 bd
       0.036337845 -0.032512166 0.00719126 -0.048998732
000290 27 68 e5 bc 48 61 d6 3d c2 eb 69 bd 4b f8 8f 3d
       -0.028003765 0.10467774 -0.0571096 0.0702978
0002a0 a9 72 d2 3d 0b 43 d9 bc e1 14 b5 bc 46 dc 13 be
       0.10275776 -0.026521226 -0.022104682 -0.14439496
0002b0 30 5e 43 bd 61 a2 c7 bc 21 ca ca 3c 76 6b b5 3c
       -0.047697246 -0.02436942 0.024754586 0.022145968
0002c0 47 2d f1 bc d7 b2 49 bb 44 c1 43 bc a5 db de 3d
       -0.029440535 -0.0030776763 -0.011947934 0.108817376
0002d0 49 28 6c 3b 9d 36 21 bd 09 a4 6d bc dd a4 f7 3c
       0.0036034754 -0.039358724 -0.014504441 0.03022998
0002e0 6c 0e ec 3d 27 2a 8a 3d 6a 71 c7 3d bc 5d cb bd
       0.11526188 0.06746321 0.09738429 -0.09929988
0002f0 e8 f7 e6 bb 69 4e 8a 3d 2b e5 47 bc dc e1 eb 3d
       -0.0070485957 0.06753237 -0.012200634 0.11517689
000300 a2 d5 ce 3d 73 fd fb 3c c5 de 64 3d 40 5c e2 ba
       0.10099341 0.030760502 0.055876512 -0.0017269924
000310 3a f3 b1 bd 88 cc 18 3d 5e 95 82 3d 59 fe 53 bc
       -0.0868897 0.03730443 0.06376146 -0.012939059
000320 39 cb ac 3d 32 5c fb bc c0 6f e0 3d 50 11 ae 3d
       0.08437199 -0.03068361 0.109588146 0.08499396
000330 b0 9f 79 3d d8 04 bc bd 46 74 74 3d a7 d3 15 3d
       0.060943305 -0.09180611 0.0596812 0.0365788
000340 51 b6 6e 3d 79 1c 91 3d 49 22 e6 3d 02 de 3d bd
       0.05827934 0.07085509 0.11237008 -0.0463543
000350 24 66 af 3c 0b 4e f6 3c b2 35 2c 3d 1a b2 45 3d
       0.02141101 0.03006651 0.042043395 0.048265554
000360 ac 54 74 3a b7 f4 63 bc 15 43 43 3d 8e ae ab 3a
       0.00093204784 -0.013913325 0.047671396 0.0013098286
000370 cb d6 74 3d 1c af 7b bd 02 eb 22 bd 86 31 12 3d
       0.059775155 -0.061446294 -0.039774902 0.03569176
000380 cd 6c fc 3b 6b 49 97 bc ce b6 f2 bc 54 c1 d3 bd
       0.0077033998 -0.018467626 -0.029628184 -0.10339609
000390 d8 ff cc bc 68 9a ff bc ea 65 a8 ba 59 cc 8f 3d
       -0.02502434 -0.031201556 -0.0012847756 0.07021398
0003a0 80 d1 0a 3c 8f 9d bc bb c5 b7 a2 bc 98 78 99 bd
       0.0084728 -0.005756087 -0.019863019 -0.074937046
0003b0 5a 24 85 3d a6 d6 c4 3d 03 a0 5e bd c8 d4 95 39
       0.06501074 0.096112534 -0.054351818 0.0002857803
0003c0 f5 8b ba 3d 3c 2c f6 3d a6 a6 2c bc e8 43 91 3d
       0.09108726 0.12020156 -0.010537779 0.0709303
0003d0 b1 ef 92 bd 96 7a 82 bd ab 8f 14 bd e1 c7 01 3d
       -0.07174624 -0.06371038 -0.036269825 0.03168476
0003e0 06 07 3c bc 42 47 53 3d 02 b8 f3 bd 63 ac d1 3c
       -0.011476284 0.05158163 -0.11900331 0.025594896
0003f0 3f 01 d6 3d e2 bb 9e 3d fe ee db bc 00 2a 5f 3d
       0.104494564 0.077506796 -0.026847359 0.054483414

net.2.bias f4 [128]
000000 af a1 1c bc ad 97 ac 3c 58 bd 52 bd 37 d6 55 3d
       -0.009560033 0.021068418 -0.051450104 0.052206244
000010 55 73 29 3c 9f d0 b9 bd 28 92 be 3d f9 55 a5 3d
       0.010342439 -0.090729944 0.09305221 0.080730386
000020 76 a3 75 3c 68 d9 13 3e 87 c4 43 bd e9 b6 b7 bb
       0.014992585 0.14438403 -0.047794845 -0.0056065214
000030 03 2f 82 3b 7c fa ad 3c 83 d5 a4 bd e6 ef 28 3d
       0.0039728894 0.021237604 -0.08048537 0.04124441
000040 2d be 29 bd 73 f9 ce bc b8 e5 76 bd 3b c5 26 bd
       -0.04144113 -0.025265431 -0.06027767 -0.040715437
000050 99 22 23 3d 56 7e af 3d 9a 91 d2 3c cd 10 73 3c
       0.039827917 0.085690185 0.025704194 0.014835549
000060 93 f9 30 bc f5 09 93 bb e4 d0 ab bd 4b 4f 6b bc
       -0.010801691 -0.004487271 -0.08389452 -0.014362167
000070 11 a2 07 bd 23 fa f9 3a 83 6f dd 3d 66 29 b9 3d
       -0.033113543 0.0019071739 0.10812285 0.09041099
000080 e2 8a 10 bd eb f8 02 3d 37 1f 66 3d 20 ed 6f 3c
       -0.0352887 0.031975668 0.056182113 0.014643937
000090 f0 5b 5c bb 59 32 ce bd bd 16 17 bc 71 e6 a5 bb
       -0.0033624135 -0.10068197 -0.00922173 -0.005062871
0000a0 73 da 30 3c c2 c7 c3 bd dd e7 c3 bc a8 34 2d 3b
       0.01079427 -0.09559585 -0.023914272 0.002642909
0000b0 f3 e9 06 bd a5 11 e7 3b d7 89 bb 3d ac 09 72 3d
       -0.032937955 0.007051664 0.0915715 0.059091255
0000c0 c8 86 a9 bd 6d 36 fd bc ef a6 7f 3d ad 9e a4 3d
       -0.082776606 -0.030909741 0.06241506 0.080380775
0000d0 4b a0 92 bd ac b0 35 bd 3c 14 65 3c 06 e2 95 3b
       -0.0715948 -0.04435794 0.013981875 0.0045740632
0000e0 a9 24 29 3d b9 bb 43 3b a0 15 91 bb 42 e8 f9 bc
       0.041294727 0.002986653 -0.0044276267 -0.030506257
0000f0 75 e9 b4 3d 0d d2 ac bd 1a 2e b0 bc b9 fe c6 bd
       0.08833591 -0.084385015 -0.021506358 -0.09716553
000100 3a 9a a3 bd 67 b6 b7 3c 2c d4 97 bc 1d 41 dd 3d
       -0.07988401 0.022425843 -0.018533789 0.10803435
000110 2e 7f 04 3e bd c8 fb 3b 43 a0 c1 bc 32 44 4a 3d
       0.1293914 0.007683842 -0.023635989 0.049381442
000120 a8 96 de 3c 6a f5 a9 3b 96 26 00 bd e0 d9 0d bb
       0.027171448 0.0051867263 -0.0312868 -0.0021644756
000130 57 e8 84 3c 6a fa 43 3d 7a 4a 03 3e 9b 5a d2 3d
       0.01622407 0.047846235 0.1282138 0.10271188
000140 92 e4 1d bc 52 d9 bb 3d 7b 4b 8f 3c 37 70 4a bd
       -0.009637015 0.0917231 0.017492047 -0.049423423
000150 09 5e 3a bd 41 18 d0 3d 6c 7b dc 3c 40 24 a6 bd
       -0.045499835 0.10160876 0.02691432 -0.08112383
000160 7a 34 96 3c b9 f8 26 3d d1 e0 8b 3d cd eb 05 bd
       0.01833557 0.040764544 0.0682999 -0.03269558
000170 f4 60 b1 bd d1 ef 02 3d 1d 66 41 bd 4b e9 00 bd
       -0.086610705 0.031966988 -0.047216523 -0.031472486
000180 f9 fe 68 3c ee 4f d4 3d c2 34 95 3c 73 4f a8 bd
       0.0142209465 0.10366808 0.018213633 -0.08218279
000190 94 76 5e bd e4 d1 15 3d 55 67 6b 3d e5 81 d1 3b
       -0.054312304 0.03657712 0.057471592 0.0063936585
0001a0 72 a2 2c bd a3 f1 31 3d 47 a7 b8 3d 25 6f 37 bd
       -0.042147107 0.043443333 0.090162806 -0.04478373
0001b0 f7 6a 39 3d 7f d0 52 3d 3d 6b 82 3d 32 4a 91 bb
       0.045268025 0.05146837 0.0636811 -0.0044338936
0001c0 6a cd b7 bd 7b e6 6b bd a8 fa 97 3d 26 e9 08 bc
       -0.089747265 -0.05759285 0.07420856 -0.008356368
0001d0 24 aa c9 3d 39 02 a9 3d bb 21 41 bd e8 b0 d8 3c
       0.09846905 0.08252377 -0.04715131 0.026451543
0001e0 18 9e 0a bd cd e5 d9 3a bb e1 a5 3d b2 af e8 3d
       -0.033842176 0.0016624272 0.08099695 0.11361636
0001f0 0c e5 fa 3c 68 29 43 3d 9d 2b 9d bb 5a cd bd 3d
       0.030626796 0.04764691 -0.004796459 0.09267683

net.4.weight f4 [5, 128]
000000 81 3f 18 be bd 27 94 3d 3e d1 5e 3d 27 9a 6d bc
       -0.14867975 0.07234142 0.054398768 -0.014502085
000010 f1 2c e1 bd 54 0c 8c 3d d3 0b c3 bc 3a df 99 3a
       -0.109949 0.06838289 -0.02380935 0.00117395
000020 9e 27 f0 bb a4 99 ee 3c ad 3b 80 bd 2d 71 cb bd
       -0.0073289415 0.029125996 -0.06261382 -0.09933696
000030 68 63 4b be 4c 58 5b bb 95 8c a9 bc b5 19 7e 3d
       -0.19862139 -0.0033469377 -0.020696918 0.062036235
000040 58 8e 9e bd bf 20 1b bc d4 79 b5 bd 3f ee 32 bc
       -0.07741994 -0.0094682565 -0.088611275 -0.01092106
000050 66 81 8c 3d 36 ce 34 3c ef 8a 84 3d b7 5d b2 3d
       0.06860618 0.011035493 0.06471812 0.08709281
000060 0d 06 ee 3b 00 3d 86 3d dc 3e ad 3c ea e8 9b 3d
       0.007263905 0.065546036 0.021148138 0.07612784
000070 13 0c 6a bd 64 0f ac 3d 65 cb b1 3c 6b 3d ed 3c
       -0.05714042 0.08401373 0.021703431 0.02895995
000080 03 45 66 be 70 28 df 3c d9 5b eb 3c 23 6d 49 bd
       -0.22487263 0.027240962 0.02873032 -0.049176347
000090 64 9f e9 3d 4d 98 07 3e 18 e5 0d 3d 0e 9b ce 39
       0.114073545 0.13241692 0.03464231 0.00039406907
0000a0 7b fa 36 3c 6f ac 7e bd 61 08 ac bd 4b ef 6f 3c
       0.011168118 -0.062176164 -0.08400036 0.014644454
0000b0 58 09 0c 3d 3f 73 00 3e 85 d9 96 3d 56 7f 26 bd
       0.0341886 0.12543963 0.07365707 -0.04064878
0000c0 78 3a 93 bd bd d0 ab 3c 05 02 c1 bc c6 fb 1d be
       -0.071888864 0.020973558 -0.023560533 -0.15428075
0000d0 9e 9c bb 3d 37 d5 a9 bc 61 ad 57 bd 21 b9 fe 3d
       0.09160732 -0.020731552 -0.05265558 0.12437654
0000e0 b4 d4 5c be 5e 41 6b bd 1a f9 91 3d 83 5e 6c 3d
       -0.21565515 -0.057435386 0.071275905 0.05770732
0000f0 d2 a7 9e bd 87 cc e9 bb f8 aa 14 be 3c b0 54 3b
       -0.07746853 -0.0071349773 -0.14518344 0.0032453677
000100 3b c9 a8 bc 59 d9 8a bd e4 d6 25 be 00 d3 47 3d
       -0.020603767 -0.06779737 -0.16195256 0.04878521
000110 0f d0 7b bd 98 c1 3f 3c 68 f8 cc 3d af 22 8b bd
       -0.061477717 0.011703871 0.10008317 -0.06793725
000120 95 ed a2 3d 27 45 a7 3c 7e cb 53 be 87 04 83 bd
       0.079554714 0.020418717 -0.20683095 -0.06397348
000130 d3 80 ce bb e9 50 c9 bd 14 75 07 3d eb 4a 86 3c
       -0.006301978 -0.098298855 0.03307064 0.016393146
000140 04 2a 79 bc 8c ef 93 3d 7e 8a ce bb aa 9d a0 3d
       -0.015207771 0.07223424 -0.0063031306 0.07842572
000150 8c 64 b2 3d 8a 7a d0 3d be d6 d6 3d 2b 54 27 bd
       0.08710584 0.101796225 0.104901776 -0.040851753
000160 d8 af 24 3c 6d 95 e9 3b e8 cd 80 3d fc 15 79 3d
       0.01005169 0.0071284086 0.062892735 0.06081198
000170 82 5c c9 3c 76 bb cb bc 5a 85 58 3d 45 59 88 bd
       0.024580244 -0.024869662 0.05286155 -0.06657652
000180 5d 30 02 be 38 7f 16 bc 1a 44 12 3d 36 25 91 bc
       -0.12713762 -0.009185605 0.035709478 -0.017717939
000190 3c 2f ae 3d 0c 8c 16 3c 9b b8 1c 3d c8 ee c6 3c
       0.08505103 0.009188663 0.03826199 0.024283782
0001a0 cd e4 00 3c 93 f5 11 bc e3 3b 5d be 1f 8b 7d bd
       0.00786705 -0.008908647 -0.21604876 -0.061900254
0001b0 fe bd a3 3c 5a 6d 54 3d b1 e0 20 3c b4 e0 8b 3d
       0.019988056 0.0518621 0.009819196 0.06829968
0001c0 36 2d 80 3d 82 a3 a2 bd d7 98 a0 bd a2 56 88 3d
       0.06258623 -0.07941343 -0.07841652 0.06657149
0001d0 34 9c 8a bd ce e9 62 3d 13 77 92 bd 7d 2e 87 3d
       -0.06768075 0.055398755 -0.07151618 0.06600664
0001e0 f0 27 1e be 35 77 ee 3c c0 f6 02 be fe 47 18 bd
       -0.15444922 0.029109577 -0.1278944 -0.037178032
0001f0 10 56 24 3d cb c8 23 3d fc b8 65 bd 4d e9 93 3d
       0.040121138 0.039986413 -0.056084618 0.07222233
000200 87 64 e3 bd b0 d3 30 be 4e 16 c4 3d 9e b8 f1 3b
       -0.111031584 -0.17268252 0.09574567 0.0073767444
000210 35 d8 9f 3d 28 14 4a 3c af cb df 3c 2c 2c 71 be
       0.0780491 0.012333907 0.027318804 -0.23552006
000220 5b ca 83 3d 78 e4 86 3d 61 55 e4 bc ae dd dd bd
       0.064350806 0.06586546 -0.027872743 -0.10833298
000230 ef 6f fe 3c f0 96 82 3d 5d e1 c0 3b 82 b0 d2 bd
       0.031059233 0.06376445 0.0058862404 -0.102875724
000240 2c 8e de 3d d9 e7 44 3d 0f 5f 35 bb 45 ec f5 3b
       0.10866961 0.04807267 -0.0027675068 0.007504972
000250 70 35 de 3d d4 36 e5 bd 15 24 03 be 38 39 1e be
       0.10850036 -0.11192098 -0.12806733 -0.15451515
000260 3e b6 2d 3d 22 b4 28 be 00 4d c2 3a 99 f3 2a be
       0.042410128 -0.16474965 0.0014823973 -0.16694488
000270 9f a1 7a 3d 24 b5 01 be 68 da d5 bd 8e 90 ee bd
       0.06118929 -0.12666756 -0.10442048 -0.11648665
000280 be 47 df 3c ea 7e a2 bd 91 7a 03 bc 73 9e 94 3c
       0.027255889 -0.07934363 -0.008024828 0.01814196
000290 b1 76 cb bd 5e 11 a2 bc da 1c c7 bd fd 4e 55 be
       -0.09934748 -0.019783672 -0.097223 -0.20830913
0002a0 9c bd 99 bc 7d 89 74 3d 9c 39 c8 bb 5d 34 d7 3d
       -0.01876717 0.05970143 -0.006110383 0.105080344
0002b0 61 4b 3f bd 97 ca 8b 3d a2 97 b0 3d 21 64 83 3c
       -0.046702746 0.0682575 0.08622672 0.016038956
0002c0 d2 c2 44 3d b1 cb 70 bd 73 5c ca bd 48 33 dc bb
       0.048037358 -0.058788005 -0.098809145 -0.0067199804
0002d0 79 ca 00 be 22 98 d9 3d e6 76 2d be 0f 1d 04 be
       -0.12577237 0.1062472 -0.16939887 -0.1290171
0002e0 10 7f c3 3c b4 2b ad bd 8c 21 42 be d2 9a 07 3e
       0.023864299 -0.08455601 -0.1895811 0.13242653
0002f0 12 8a 4a bd bf fe 88 3c 17 86 c7 3d 67 c2 83 3d
       -0.04944808 0.016723035 0.097423725 0.06433564
000300 a1 44 59 bd 24 ad 63 bd 5c 3d 11 3e 6d f1 e4 bd
       -0.053043965 -0.05558504 0.14183563 -0.11178861
000310 dd 43 25 be e6 78 2f be f6 91 ff 3d bf 16 e1 3d
       -0.16139169 -0.17135963 0.12479012 0.109906666
000320 3c 1e 26 be 18 c8 70 be 91 7d dd bc 9d 22 66 be
       -0.16222471 -0.2351383 -0.027037414 -0.22474141
000330 e1 3c d6 3d 47 cb 8e bd 52 e5 29 be 41 07 25 be
       0.104608305 -0.06972366 -0.16591385 -0.16116048
000340 87 5e db 3d 20 ab 05 be fb 26 68 be 08 e8 44 3d
       0.10711389 -0.1305356 -0.2267112 0.048072845
000350 a3 64 9d 3c 09 a4 1c be e3 09 cd 3d 05 0f 7c bc
       0.019213026 -0.1529695 0.10011651 -0.01538444
000360 30 0e 94 bd 17 c6 4b be bd 12 15 be f7 a0 49 be
       -0.072292686 -0.19899784 -0.1455793 -0.1969031
000370 2a 2d 54 3c be b1 0f bd 65 b9 07 3e 68 0f 3d bd
       0.012950221 -0.035081618 0.13254316 -0.04615727
000380 49 a4 f3 3d b7 a5 06 3e 9a 65 fe bc af 7e 0a be
       0.11896569 0.13149153 -0.031054307 -0.13524888
000390 ec 9d 36 3d c0 e4 20 be b3 87 a3 3d 3d 43 68 3d
       0.0445842 -0.15712261 0.07984867 0.05670475
0003a0 e4 d5 1e be 8f 76 ad bd b2 fc 67 3d e4 9a 37 3d
       -0.1551128 -0.08469879 0.056637473 0.04482545
0003b0 20 28 42 bc 4c d1 00 3d f0 7a 07 3d 44 23 00 3e
       -0.011850387 0.0314496 0.033076227 0.12513453
0003c0 44 88 ac 3c 6a 4e 8d bd 88 3d e5 3d 89 e1 32 3d
       0.02106107 -0.06899722 0.11193377 0.04367212
0003d0 b8 08 44 3d 11 b1 c4 bd b3 8e 0d 3e 97 6e 98 3c
       0.047859877 -0.09604085 0.13823967 0.01860742
0003e0 71 fb f2 bd 78 d6 32 be b1 fa 38 bd 5b 71 70 bd
       -0.11864365 -0.17464626 -0.045160953 -0.058701854
0003f0 3b 1f d8 3b f5 f6 8b bd e2 0d 4b 3d 13 ef 86 bc
       0.00659552 -0.06834213 0.049573787 -0.016471421

net.4.bias f4 [5]
000000 aa 84 39 3d 4e 85 a6 bc 60 53 30 3d b3 85 ed 3d
       0.045292534 -0.020327237 0.043048263 0.11597767
000010 7a 8e 0d 3d
       0.034559704
