fl_server/fed_classifier_ae_transfer.tflite (tflite, 113440 bytes, 12 tensors)

clf/dense_2408/MatMul f4 [5, 128]
0	0x3e2ff652	0.17183807
1	0xbd8310a4	-0.06399658
2	0xbd0759a4	-0.033044472
3	0xbe4a3544	-0.19746882
4	0x3e25990f	0.16171668
5	0xbe39ce66	-0.18145141
6	0x3c0065cf	0.007836773
7	0xbded329a	-0.11581917
8	0x3d9e59fa	0.077320054
9	0x3e215907	0.15756617
10	0xbd83854f	-0.06421911
11	0x3dc61b90	0.09673226
12	0xbdd7cfb6	-0.105376646
13	0x3e5e23af	0.216933
14	0x3db2151f	0.08695435
15	0x3d37bf5f	0.04486024
16	0x3e544cc2	0.20732406
17	0x3cec2549	0.028826373
18	0xbe2bc461	-0.16774131
19	0x3de40145	0.11133055
20	0xbd34ef2b	-0.0441734
21	0x3e3799a4	0.17929703
22	0xbd8218af	-0.06352364
23	0x3ddc016b	0.10742458
24	0x3d256af7	0.040385213
25	0xbe059c10	-0.13047814
26	0xbe456bae	-0.19279358
27	0xbd40b7cc	-0.047050282
28	0xbd217dd2	-0.039426632
29	0x3e39cc13	0.18144254
30	0xbe1ebb17	-0.15501057
31	0xbdee6262	-0.11639859
32	0xba831abe	-0.0010002477
33	0x3e01bb89	0.12669195
34	0x3e42a8ac	0.19009656
35	0x3e345b89	0.17613043
36	0x3dc65549	0.096842356
37	0x3b07166d	0.0020612732
38	0xbe28f813	-0.16500883
39	0x3e4f60a1	0.20251705
40	0x3e4a15e5	0.19734915
41	0xbe0f5e56	-0.1400083
42	0x3de5eccd	0.11226807
43	0xbdb1e5d9	-0.08686418
44	0xbe52b1ae	-0.20575592
45	0xbe2d09d4	-0.1689828
46	0x3ba1585e	0.0049238643
47	0x3bf6300f	0.0075130532
48	0x3e39ddc8	0.18151009
49	0xbd2d8412	-0.04236228
50	0x3cdf3ece	0.027251627
51	0xbc5074b3	-0.012723136
52	0x3e2f176d	0.1709878
53	0x3e370d13	0.17876081
54	0xbe513d1d	-0.20433469
55	0x3cc6a2c2	0.02424753
56	0xbe1395e5	-0.14412649
57	0x3e4c4192	0.19946888
58	0xbdf2f158	-0.11862439
59	0x3e353c6d	0.17698832
60	0x3e2ccb9b	0.16874544
61	0xbdac3a72	-0.08409585
62	0x3de9b14c	0.1141077
63	0xbd2645fa	-0.04059408
64	0x3d9a24bc	0.07526538
65	0xbe3159bf	-0.17319392
66	0x3dc5d65a	0.09660025
67	0x3dba5f5e	0.09100221
68	0x3c9ccfee	0.019142117
69	0x3d53a5ec	0.051671907
70	0xbe2e81de	-0.17041728
71	0xbcf022b3	-0.02931342
72	0xbc833ccf	-0.016020207
73	0x3dee480e	0.11634837
74	0x3c0e31ae	0.008678837
75	0x3b9bb44e	0.0047517186
76	0x3e090808	0.1338197
77	0xbe285fc1	-0.16442777
78	0xbddc9ed1	-0.10772479
79	0x3d0988d4	0.033577755
80	0xbe17c727	-0.14822064
81	0x3ddf67ef	0.10908496
82	0xbe0b9098	-0.13629377
83	0xbc71ccc4	-0.014758293
84	0x3d12876a	0.035773672
85	0x3deeda07	0.11662679
86	0xbe40bc80	-0.18821907
87	0x3da4674e	0.08027516
88	0xbe2ed043	-0.17071633
89	0xbda3649d	-0.07978175
90	0xbd9d7763	-0.07688787
91	0x3e57fd8c	0.21092814
92	0xbe4fc4e5	-0.20289953
93	0x3e63d9d0	0.22251058
94	0xbe251d3d	-0.16124435
95	0x3de30394	0.11084667
96	0xbdfb4aaa	-0.122701004
97	0x3e17800c	0.1479494
98	0xbe486900	-0.19571304
99	0xbd66832a	-0.05627743
100	0xbd244b12	-0.040110655
101	0x3e1347bb	0.14382832
102	0x3e043577	0.1291102
103	0x3df32a18	0.11873263
104	0x3e1b3477	0.15156732
105	0x3d13b89c	0.03606473
106	0x3de77471	0.11301506
107	0x3e0f1602	0.13973239
108	0xbe2d2c5b	-0.16911452
109	0xbdb27b2c	-0.087148994
110	0xbc9a7d9b	-0.018858721
111	0x3d891978	0.06694311
112	0x3b37820e	0.0028001103
113	0x3c44015f	0.0119632175
114	0x3d17c138	0.037049502
115	0x3e4c23ec	0.19935578
116	0xbc3e33f3	-0.011609065
117	0x3e52cc02	0.20585635
118	0x3da9cfd4	0.08291593
119	0x3e33351a	0.17500725
120	0x3e205e19	0.15660895
121	0xbdc68f99	-0.09695358
122	0x3e21dfff	0.15808104
123	0xbe3f189c	-0.18661731
124	0x3d2b29c2	0.04178787
125	0xbda5e631	-0.08100546
126	0x3d8ef196	0.069796726
127	0x3e2e0f41	0.16998006
128	0x3d969d27	0.07354193
129	0xbdcfbe74	-0.10143748
130	0xbd222bb2	-0.039592452
131	0xbda703b1	-0.08155001
132	0xbd537710	-0.05162722
133	0xbe3e2111	-0.18567301
134	0x3e0775a7	0.13228475
135	0x3cb08566	0.021547984
136	0x3bd632c0	0.0065368116
137	0x3e1675ed	0.14693423
138	0x3e08b1b9	0.13349046
139	0x3cf7fc9b	0.030271819
140	0xbe2dbd35	-0.16966708
141	0xbcea3385	-0.02858902
142	0x3e2e3242	0.1701136
143	0xbe0428e3	-0.12906222
144	0xbe09ed71	-0.13469483
145	0x3da7c277	0.08191388
146	0x3b87c6e0	0.004143581
147	0x3e0c9fe7	0.13732873
148	0xbe3dbe07	-0.18529521
149	0x3e023587	0.12715732
150	0x3de10586	0.10987382
151	0x3e26a50f	0.16273902
152	0x3e50a7b3	0.20376472
153	0xbd72c47f	-0.059269425
154	0x3cffb58e	0.031214502
155	0x3e34ebfa	0.17668143
156	0xbd6a0d74	-0.057141736
157	0x3dde3985	0.10850815
158	0x3d406e5d	0.04698025
159	0x3e2317ae	0.15927002
160	0xbd22be62	-0.039732344
161	0x3cb4dd99	0.022078322
162	0x3e54bb4e	0.20774576
163	0x3d7c8da6	0.061658524
164	0xbcf7ae54	-0.030234493
165	0xbe000f36	-0.12505803
166	0x3e2e72d4	0.17035991
167	0xbd032661	-0.032019023
168	0x3e226f6b	0.15862815
169	0x3cd4149d	0.025888735
170	0xbe358864	-0.1772781
171	0x3e3f0d09	0.18657316
172	0xbdd58284	-0.104252845
173	0x3d0fc901	0.0351038
174	0x3d439c08	0.047756225
175	0x3debd772	0.11515702
176	0x3dd79b4a	0.10527666
177	0x3e09259c	0.13393253
178	0x3e0c6341	0.13709737
179	0xbd9171f5	-0.07101814
180	0x3e2ccb09	0.16874327
181	0x3e55aed4	0.20867473
182	0x3dbf7748	0.09348923
183	0x3d946bb5	0.07247106
184	0xbe45c49a	-0.19313279
185	0xbd44e994	-0.04807432
186	0x3dc32d45	0.09530119
187	0xbe1ef6a3	-0.15523772
188	0x3d8e3339	0.06943364
189	0xbd0ad572	-0.033894964
190	0x3df5483a	0.11976667
191	0xbe24b612	-0.1608508
192	0x3d9f33c1	0.07773543
193	0xbe140293	-0.14454107
194	0xbe21b461	-0.15791465
195	0x3e19476c	0.14968652
196	0x3e375a15	0.17905457
197	0x3caf8fe3	0.021430915
198	0xbb8840d2	-0.004158118
199	0x3d04d9d5	0.032434303
200	0xbdc0ed02	-0.09420206
201	0xbe5a8880	-0.21341133
202	0xbda0c93b	-0.07850882
203	0x3ba4b4b5	0.005026425
204	0xbe1c5f4a	-0.15270725
205	0x3e304660	0.17214346
206	0xbe262e97	-0.1622871
207	0xbe089bfa	-0.1334075
208	0x3dcfe6dd	0.101514556
209	0x3c663c8e	0.014052523
210	0x3e172e7b	0.14763825
211	0xbe5e3dce	-0.21703264
212	0xbe63e74f	-0.22256206
213	0x3da2f6f7	0.07957261
214	0x3e0ad226	0.13556728
215	0xbbf6241c	-0.007511629
216	0x3c9de9c0	0.0192765
217	0x3dba3ff3	0.090942286
218	0x3e536a66	0.20646057
219	0x3e106596	0.14101252
220	0x3d2ecab6	0.04267379
221	0x3c3f7572	0.011685716
222	0x3def5e09	0.11687858
223	0xbe31aea1	-0.17351772
224	0x3e085c34	0.13316423
225	0x3dc5fe5d	0.096676566
226	0xbe63d8bc	-0.22250646
227	0xbd848f8b	-0.06472691
228	0xbe73aba3	-0.23795943
229	0xbe057a0b	-0.13034837
230	0xbd82562d	-0.06364093
231	0x3b00731c	0.001959986
232	0xbe0367fc	-0.12832636
233	0xbdba7f19	-0.09106273
234	0x3dccf6a2	0.10007979
235	0x3d694b77	0.056956735
236	0x3d9c1e05	0.07622913
237	0xbe2a21ed	-0.16614504
238	0xbdba1b29	-0.09087212
239	0xbdd369b8	-0.103228986
240	0xbe3c0647	-0.1836177
241	0x3e4ee647	0.20205031
242	0x3e0553a5	0.13020189
243	0xbd11e81f	-0.03562176
244	0xbd9c2509	-0.076242514
245	0x3dc82770	0.09773147
246	0x3d84fca5	0.064935006
247	0x3cb30cb3	0.021856641
248	0xbe0d3e4b	-0.13793294
249	0xbd85ec7b	-0.06539246
250	0xbe013238	-0.12616813
251	0x3be659e9	0.007029761
252	0xbd893f8b	-0.06701573
253	0xbe4588ce	-0.19290468
254	0x3cd4cfc6	0.02597798
255	0xbdd4f63a	-0.103985265

clf/dense_2407/BiasAdd/ReadVariableOp f4 [128]
0	0x3cb741ec	0.022370301
1	0x3873a871	5.8092588e-05
2	0xbc05fa4f	-0.008177354
3	0xbb8172e8	-0.0039504655
4	0x3ccc2e04	0.024924286
5	0xbbb5c4c1	-0.0055471365
6	0xbb959e85	-0.004566016
7	0xbb893971	-0.0041877558
8	0x3cc35f9f	0.023849307
9	0x3cdfa98c	0.027302526
10	0x37aaf061	2.0377514e-05
11	0x00000000	0.0
12	0xbc7ff207	-0.015621669
13	0x3cbc42a3	0.022980994
14	0x3bb15756	0.0054120226
15	0x3ce95ce5	0.028486678
16	0x3ccccf4f	0.025001196
17	0x00000000	0.0
18	0x00000000	0.0
19	0xbb1189b1	-0.0022207315
20	0x39daa2f3	0.00041701607
21	0x3c9e871d	0.019351536
22	0xbc13cbcc	-0.009020757
23	0x3c2e72bc	0.010647472
24	0xbaa56ad8	-0.0012620343
25	0xbba2e1b4	-0.0049707536
26	0xbb3f6724	-0.0029205764
27	0xbc20ff44	-0.009826485
28	0x00000000	0.0
29	0x3cb5e302	0.022202972
30	0xbb180a2e	-0.0023199427
31	0xbbb1fa14	-0.005431423
32	0xbbdc95db	-0.0067317314
33	0x00000000	0.0
34	0x3b3c1efd	0.0028704994
35	0x3ca36b9f	0.019948779
36	0x3cbb7bfa	0.022886265
37	0x3cb3871f	0.021915017
38	0xbbdc2d8c	-0.006719297
39	0x3ca828e3	0.020527309
40	0x3ca5f30d	0.020257497
41	0xba22ba8c	-0.0006207607
42	0x38244a2b	3.916972e-05
43	0xbc8b1671	-0.016978474
44	0xbb59799d	-0.003318406
45	0xbb844173	-0.0040361225
46	0xbb971baa	-0.004611452
47	0xbbb37be7	-0.005477417
48	0x3cc6b530	0.024256319
49	0xbb19ed66	-0.0023487448
50	0x3c7d1643	0.015447202
51	0x3cbd57e1	0.023113193
52	0x3ca0f3b4	0.019647457
53	0x37b9a525	2.213062e-05
54	0xbc0c63d3	-0.008568722
55	0x3c63db22	0.013907226
56	0xbbfea2eb	-0.007770886
57	0x3cbca08f	0.023025779
58	0xbadf5d2e	-0.001704132
59	0x3a85f540	0.0010220185
60	0x3ce12b56	0.027486484
61	0xbbf0eaef	-0.007352225
62	0x3cb31179	0.021858918
63	0xbc216e14	-0.009852905
64	0x3cbbdcf4	0.022932507
65	0x00000000	0.0
66	0xb71206e6	-8.703884e-06
67	0x3c7d1e27	0.015449083
68	0x3c16e967	0.009210921
69	0x3c766cbf	0.0150405755
70	0xbc18ebb4	-0.00933354
71	0xbc5cca17	-0.013475916
72	0x3c1a11a9	0.009403625
73	0x3c245a04	0.010031227
74	0x3bb89d03	0.0056339516
75	0xbb6d896b	-0.0036245238
76	0x3cc1cd9a	0.023657609
77	0xbc4b0167	-0.012390471
78	0xbb83d988	-0.0040237345
79	0x3ce0d856	0.027446907
80	0x00000000	0.0
81	0x3caaea8e	0.020863798
82	0xb9c9195a	-0.00038356596
83	0x3ce0eec0	0.027457595
84	0x3cdb3d25	0.026762554
85	0x3c935a55	0.01798741
86	0xbc53e869	-0.012933829
87	0x3ca4f487	0.020136131
88	0xbc0be647	-0.008538789
89	0xbb9e2797	-0.004826497
90	0xbba5e9b6	-0.005063261
91	0x3cc3f3fb	0.02392005
92	0xbbfd0026	-0.007720965
93	0x3cc00e7c	0.023444407
94	0x00000000	0.0
95	0x3ccf68d2	0.025318537
96	0xbc48fd94	-0.012267489
97	0x3cd791d4	0.026314653
98	0xbbf4d5af	-0.007471762
99	0xbb20fe0a	-0.0024565482
100	0x3cd87390	0.026422292
101	0xb80eb13e	-3.4020508e-05
102	0x39530730	0.00020125206
103	0x3cc9ec82	0.024648909
104	0x3cd520b1	0.026016565
105	0x00000000	0.0
106	0x3c8192cf	0.015817074
107	0x3cdc658b	0.026903888
108	0xbc4ad008	-0.0123787
109	0x3c421849	0.01184661
110	0x3a34f6ef	0.0006903251
111	0x3c49789e	0.012296824
112	0x3868623e	5.5404606e-05
113	0xbc14f783	-0.0090922145
114	0xbbc65bb4	-0.0060534123
115	0x3cdc0079	0.026855694
116	0xbbb4eafe	-0.0055211773
117	0x3cde485d	0.027134115
118	0xbbf82034	-0.0075721983
119	0x3cc79730	0.024364084
120	0x3cac230c	0.021012805
121	0xbb4c7644	-0.0031198421
122	0x00000000	0.0
123	0xbc2d6bef	-0.010584815
124	0x3c8f80c2	0.017517451
125	0x3cd9ab77	0.026571019
126	0x3cd63f3d	0.026153201
127	0xb9b7f967	-0.000350903

clf/dense_2408/BiasAdd/ReadVariableOp f4 [5]
0	0x3cbea224	0.023270674
1	0xbd006614	-0.03134735
2	0xbc7bb097	-0.0153619265
3	0xbcff532c	-0.03116759
4	0xbceae7d0	-0.02867499

clf/encoder/conv1d_1/BiasAdd/ReadVariableOp f4 [32]
0	0x3a316f51	0.00067686016
1	0xbb9fb622	-0.004874007
2	0xbbf22457	-0.007389586
3	0xbbac9388	-0.0052666105
4	0x3b78cfe9	0.003796572
5	0xbc9275b9	-0.0178784
6	0xbb9e05ec	-0.0048224833
7	0xbbb2638e	-0.0054439967
8	0xbb5cbfb0	-0.003368359
9	0x3b5b547e	0.003346711
10	0x3c8eed25	0.017447064
11	0x3c27b34c	0.010235619
12	0xbac6909b	-0.0015149297
13	0xbb3dd552	-0.002896626
14	0x3b22a033	0.0024814724
15	0xbbe2e307	-0.0069240364
16	0x3b149ac7	0.0022675262
17	0x3c2493cb	0.010045002
18	0xbbe0541c	-0.006845964
19	0x3c85897e	0.016300913
20	0x3b130368	0.002243245
21	0x3b879d43	0.00413862
22	0xbc4ba957	-0.0124305105
23	0xbbac76ed	-0.0052632005
24	0x3c9a364d	0.01882472
25	0x3c8bd91f	0.017071305
26	0xbbd98f4a	-0.006639396
27	0x3c54bc4e	0.012984348
28	0xbc7a118a	-0.015262971
29	0xbb327aeb	-0.002723391
30	0xbb4b1b37	-0.0030991563
31	0xbba5965a	-0.0050533237

clf/encoder/conv1d_2/BiasAdd/ReadVariableOp f4 [64]
0	0xbb9027cd	-0.004399276
1	0xbaec0bb2	-0.0018008857
2	0xbc0813ba	-0.008305484
3	0x3a6178bd	0.000860106
4	0xbb502769	-0.0031761772
5	0x38a0aa0e	7.66107e-05
6	0x3c2b3bbc	0.0104512535
7	0x3c8e7ffe	0.017395016
8	0x39b7b31e	0.00035037933
9	0x3bfb8fb3	0.0076770424
10	0x3c264249	0.01014764
11	0xbc17d402	-0.009266855
12	0xbb334cf9	-0.0027359112
13	0xbbc52acf	-0.006017066
14	0xbc05398d	-0.008131397
15	0x3956019e	0.00020409233
16	0x3b470533	0.003036809
17	0xbae9307a	-0.0017790936
18	0xbb9ca7fc	-0.0047807675
19	0xbab367d8	-0.0013687564
20	0x3c2f3d6b	0.0106957955
21	0x3b309bf5	0.0026948426
22	0xbc5cc9b8	-0.013475828
23	0x3b164528	0.0022929404
24	0xbb0b73ed	-0.0021278814
25	0xbb6e7e4b	-0.0036391194
26	0xbbe6b055	-0.0070400634
27	0x3c36a8df	0.01114866
28	0x3bbd8c69	0.0057845605
29	0xb989c128	-0.0002627459
30	0xbac86ef1	-0.0015291852
31	0xbc02b467	-0.007977582
32	0x3c5472e0	0.012966841
33	0xbaa704d1	-0.0012742524
34	0xbbd92fc5	-0.006628009
35	0xbadc7a79	-0.0016821168
36	0x3849e6cd	4.8137084e-05
37	0x3c7f794d	0.015592885
38	0xbc10644d	-0.008812976
39	0x3c097e38	0.008391909
40	0x3b06a1b1	0.0020543153
41	0xbb0bf3e3	-0.0021355085
42	0xb9cfc4af	-0.00039628657
43	0xbc2e621b	-0.010643507
44	0x3bec25a8	0.0072066374
45	0xbba0f429	-0.0049119187
46	0x3b5b5252	0.0033465815
47	0x3b26d7f7	0.0025458315
48	0xbc38dd5c	-0.011283245
49	0xbafbcc95	-0.001921075
50	0x3c127517	0.008939049
51	0x3ae8e170	0.0017767381
52	0xbc5cc60b	-0.0134749515
53	0x3bae3ef2	0.0053175623
54	0x3a20a1fa	0.0006127652
55	0x3b036a5e	0.0020052413
56	0x3bf5456b	0.007485082
57	0x3b7714fc	0.0037701717
58	0x3c597f7b	0.013275023
59	0x3c5beda1	0.013423354
60	0xb9ee186c	-0.00045413093
61	0xbb2c4fa4	-0.0026292587
62	0xbc12801d	-0.008941677
63	0x3b517fb5	0.0031966988

clf/encoder/conv1d_3/BiasAdd/ReadVariableOp f4 [128]
0	0x3b9d8356	0.004806916
1	0xbae54cca	-0.0017494198
2	0xbc4aebc9	-0.012385317
3	0xba8d6829	-0.0010788488
4	0x3b8de2b4	0.0043300036
5	0xba4a175c	-0.00077091693
6	0x3bb8621b	0.0056269295
7	0xbbe58bfa	-0.007005212
8	0xbb3c30a6	-0.002871552
9	0xbb4c0df8	-0.0031136256
10	0xbbb812e1	-0.005617485
11	0x3a8348af	0.0010016168
12	0xba81960a	-0.0009886634
13	0x3b0a4534	0.0021098377
14	0x3a639710	0.0008681873
15	0x3b1a8a4f	0.0023580974
16	0x3aa83f06	0.0012836165
17	0x3a135d4b	0.0005621507
18	0xbb17f20a	-0.0023185038
19	0x3aa09323	0.0012250881
20	0xbc0f83b0	-0.008759424
21	0xbbabb2ff	-0.005239844
22	0x3b38e961	0.0028215277
23	0xbb7dc19c	-0.0038720137
24	0xbb649ced	-0.0034883574
25	0xbb83b983	-0.0040199175
26	0x3b53f1d3	0.0032340183
27	0xbb0e8b33	-0.002175045
28	0x39f9a1cf	0.00047613538
29	0x39e4cb8c	0.00043639203
30	0x3c8f1fbe	0.01747119
31	0xbb44e6b1	-0.003004473
32	0xbc02585c	-0.007955637
33	0x3a2c15fe	0.00065645564
34	0xbbd59159	-0.006517571
35	0xbb6ac2cd	-0.0035821677
36	0x3b960ae5	0.0045789354
37	0x3b9d06ff	0.0047920938
38	0xbc50211e	-0.012703208
39	0x3a6cf1d5	0.00090387213
40	0x3b8abdff	0.004234075
41	0xbbbc4b6a	-0.0057462947
42	0xbb896783	-0.0041932478
43	0xbb26ffbe	-0.0025482024
44	0xbc014c5c	-0.007891741
45	0xbb80a412	-0.0039258087
46	0xbbc67219	-0.006056082
47	0x3a04d9d0	0.0005067857
48	0x3b0d6a5c	0.0021578288
49	0x3a843be8	0.0010088654
50	0xbbd72bfd	-0.006566523
51	0x39e38422	0.0004339526
52	0x3a3ca5bc	0.0007196327
53	0xbc108edf	-0.008823126
54	0xbb1d789c	-0.0024028188
55	0xbb424d82	-0.002964825
56	0xbbd9ce45	-0.0066469037
57	0xbb3b6468	-0.0028593782
58	0x3a57d73b	0.0008233671
59	0xbb1c4f5b	-0.002385101
60	0xba6a6a6a	-0.00089422485
61	0xbb9b0368	-0.0047306307
62	0x3b87c4ae	0.004143319
63	0xbb5d1f06	-0.0033740415
64	0xbb697e45	-0.003562824
65	0x3c0b796b	0.008512835
66	0x3b41bb23	0.0029561005
67	0x3b9e0501	0.004822374
68	0xbae9e359	-0.0017844244
69	0x3b2301d0	0.0024872907
70	0x3b7abfbd	0.0038261258
71	0x3bb91a63	0.0056488975
72	0xb9d0c25f	-0.0003981767
73	0xbb6bd6d0	-0.0035986193
74	0x3ba0ce9d	0.0049074427
75	0x3ae43b53	0.00174127
76	0xbbc6d6ac	-0.0060680714
77	0x3b234ad0	0.0024916418
78	0xbc23d0e0	-0.00999853
79	0xbb9b6997	-0.004742812
80	0x3c15847d	0.009125826
81	0x3b2765aa	0.0025542774
82	0x3b986cf0	0.0046516582
83	0xbb1147bc	-0.0022168
84	0x3b961ce7	0.004581082
85	0x3bba6122	0.0056878487
86	0xbc1d6571	-0.009606705
87	0xbb372376	-0.002794472
88	0x3c36e96b	0.01116405
89	0xbbcbe26c	-0.00622206
90	0x3b9c935a	0.004778308
91	0x3a7e2120	0.0009694267
92	0x3a143845	0.0005654137
93	0x3aef190c	0.0018241717
94	0xbb932031	-0.0044899215
95	0x3b9332a2	0.00449212
96	0xbbf27191	-0.007398792
97	0xbba224cd	-0.0049482347
98	0xba5e3ff3	-0.0008478157
99	0x3a652883	0.00087416935
100	0x3c533695	0.012891431
101	0xbb71b13b	-0.003687932
102	0x3a5b577b	0.00083672226
103	0xbb452df0	-0.0030087195
104	0x3b0cb50c	0.0021470217
105	0xbb476021	-0.0030422288
106	0x3bb377c9	0.005476926
107	0x39e213b3	0.00043120756
108	0xb7795d6a	-1.4863306e-05
109	0xbac65236	-0.0015130702
110	0xbbdac43a	-0.006676224
111	0xbabe2a5c	-0.0014508474
112	0xbbb0924a	-0.0053885328
113	0x3a4190ca	0.0007383941
114	0xbb833f08	-0.0040053166
115	0x3b253ba2	0.0025212546
116	0x3b3f5917	0.0029197389
117	0xbb4c9370	-0.003121581
118	0x3c462267	0.012093163
119	0xbb322df2	-0.002718803
120	0xbae2b019	-0.0017294913
121	0xbc2e0d4c	-0.010623287
122	0x3b7a7d83	0.0038221783
123	0x3ad70d92	0.0016407243
124	0xbc66c4bd	-0.014084992
125	0x3b8ce39d	0.0042995946
126	0xbc511755	-0.01276191
127	0xbc26baac	-0.010176342

clf/conv1d_2074/BiasAdd/ReadVariableOp f4 [128]
0	0x3ccf130a	0.025277633
1	0xbbb9a989	-0.005665962
2	0x3cb83235	0.022484878
3	0x3cb68e2a	0.022284586
4	0x3c6d8917	0.014498017
5	0x3c9ffc4d	0.019529486
6	0x3ca4087c	0.020023577
7	0x3c9c44aa	0.01907571
8	0x3cc7d49f	0.024393378
9	0x3c99bcaa	0.01876672
10	0xbb0c138d	-0.0021373958
11	0x3ccdcc1f	0.025121747
12	0xbb2268b6	-0.002478165
13	0x3cc6c0df	0.02426189
14	0xbb4bd7e6	-0.0031104027
15	0xbbd5c4ea	-0.006523718
16	0x3bb99c63	0.0056643947
17	0x3c96ddce	0.018416312
18	0x3c67045c	0.01410016
19	0xbc623f3e	-0.013809023
20	0xbc695064	-0.014240358
21	0x3cbe1340	0.023202538
22	0x3cba8fee	0.02277371
23	0x3cd058ff	0.025433062
24	0x3caa8f12	0.020820174
25	0x3c5200b3	0.0128175495
26	0x3cacb38f	0.021081714
27	0x3c85c0b5	0.016327241
28	0x3bf965a2	0.0076109925
29	0x3c6497e3	0.013952228
30	0x3cc86357	0.024461431
31	0x3ccdc2c9	0.025117295
32	0x3cabd3d5	0.020975033
33	0x3cbb9ccc	0.022901915
34	0x3cdd8d8e	0.027045038
35	0x3caf92a1	0.021432223
36	0x3cbe8b2f	0.023259727
37	0x3cac4e88	0.02103354
38	0xbb7815ca	-0.0037854784
39	0x3c6f41d3	0.014603096
40	0xbbcd0139	-0.0062562493
41	0x3cc56634	0.024096586
42	0x3cba85a7	0.022768809
43	0x3cb66225	0.022263596
44	0x3ccac839	0.024753677
45	0x3cde9a8c	0.027173303
46	0x3cc61831	0.024181457
47	0x3c930e29	0.017951088
48	0xbb08a472	-0.002084997
49	0x3c781699	0.015142106
50	0xbb3f60d8	-0.002920201
51	0x3cb4b437	0.02205859
52	0x3cafeb65	0.02147455
53	0x3cbd81ec	0.02313324
54	0x3c4735a1	0.012158782
55	0x3ccfb49c	0.025354676
56	0xbba81239	-0.0051291254
57	0x3cc04a21	0.023472847
58	0x3ca21b6b	0.019788465
59	0xbbf6707b	-0.007520733
60	0x3cc95e63	0.02458114
61	0x3c73fc53	0.014891702
62	0xbc2a48a1	-0.010393293
63	0xbc005aba	-0.007834131
64	0x3c649039	0.013950401
65	0xbc4c4aae	-0.012468977
66	0x3cc511b2	0.02405629
67	0x3ccdbc3d	0.025114173
68	0xbc1bfddb	-0.009520973
69	0x3c125a90	0.008932725
70	0x00000000	0.0
71	0x3c747ebb	0.014922793
72	0x3cc4fc4f	0.024046091
73	0x3c3da935	0.011575987
74	0x3cd0a98d	0.025471473
75	0x3c8486e8	0.01617761
76	0x3c67e236	0.014153054
77	0x3cbf10ba	0.023323406
78	0xbba4321d	-0.005010857
79	0x3cba4150	0.022736222
80	0x3c1006ad	0.008790654
81	0xbb2f8238	-0.0026780497
82	0x3cc859cc	0.024456881
83	0x3cc3d052	0.023903046
84	0xbc02d089	-0.007984289
85	0xbbf6be5d	-0.0075300173
86	0x3c9a147a	0.018808592
87	0xbbc65d7e	-0.0060536256
88	0x3cd4326e	0.025902953
89	0x3cb88520	0.022524416
90	0xbc0343d7	-0.00801178
91	0x3ca64839	0.02029811
92	0xb93d6e33	-0.00018065497
93	0xbb4c4f4e	-0.00311752
94	0x3c64f318	0.013973974
95	0xbbf91a94	-0.0076020453
96	0x3c247dcf	0.010039761
97	0xbc2ff939	-0.010740572
98	0x3bf5a578	0.007496532
99	0x3ccaa319	0.024735974
100	0x3cde7669	0.027156072
101	0x3ba49384	0.005022468
102	0x3cb42ea1	0.02199489
103	0x3ccf56c0	0.02530992
104	0x3cd99539	0.026560413
105	0x3cc66d04	0.024221905
106	0x3cae97a4	0.021312542
107	0x3cd318ef	0.025768725
108	0x3cbbb440	0.022913098
109	0x3c73dc32	0.014884042
110	0xbb5657ae	-0.003270607
111	0x3cd1b738	0.02560006
112	0x3cadfd87	0.021239055
113	0xbb5ff92f	-0.0034175625
114	0x3cca4ac7	0.02469386
115	0x3cc28bb3	0.023748254
116	0xbbee891f	-0.0072795297
117	0x3cc52492	0.02406529
118	0x3cbbc54a	0.022921223
119	0x3c978c78	0.018499598
120	0xbbcd8f47	-0.0062731835
121	0x3c9c64b5	0.01909099
122	0x3c9486e6	0.01813073
123	0x3cbfb704	0.023402698
124	0xbbee6718	-0.0072754733
125	0x3c403bd6	0.011733016
126	0xbc98d68f	-0.018656997
127	0x3cd58c0d	0.026067758

clf/encoder/conv1d_1/Conv1D f4 [32, 1, 3, 1]
0	0x3d357838	0.044304103
1	0xbe6a7714	-0.22896987
2	0xbd57f731	-0.052725974
3	0xbe1fda11	-0.1561053
4	0xbdc48b2d	-0.09596858
5	0x3e0795d8	0.13240755
6	0x3e1a0793	0.15041952
7	0xbe6c66fb	-0.23086159
8	0xbd367f4e	-0.044555
9	0x3e68d1fa	0.2273635
10	0xbdf34bb7	-0.11879676
11	0xbe05baf4	-0.13059598
12	0xbe149dc5	-0.1451331
13	0x3e65c2ca	0.22437587
14	0x3d92c283	0.071660064
15	0xbd2a75cc	-0.041616246
16	0x3e1622a3	0.1466165
17	0xbd328df3	-0.043592405
18	0xbe6a4620	-0.22878313
19	0x3d934938	0.071917
20	0x3d86f024	0.06588772
21	0xbe719b6f	-0.2359445
22	0xbe406559	-0.18788661
23	0x3e21072f	0.15725397
24	0xbbebc4fc	-0.007195113
25	0x3b87c60d	0.0041434825
26	0xbd83bd20	-0.06432557
27	0xbe603162	-0.21893838
28	0xbe1ec5d0	-0.15505147
29	0xbde2c44a	-0.110725954
30	0x3e80140f	0.25015303
31	0xbc94d0c8	-0.01816596
32	0xba7770a0	-0.00094390847
33	0x3e4a68fa	0.19766608
34	0x3e62ce67	0.22149049
35	0x3dd90dbd	0.105983235
36	0xbe2929ac	-0.16519803
37	0x3e103ecf	0.1408646
38	0xbd4e745c	-0.050403938
39	0xbd43848a	-0.04773382
40	0x3e42b4b3	0.19014244
41	0x3e10c0cd	0.14136048
42	0xbbf5a321	-0.007496253
43	0x3e0edb17	0.13950764
44	0xbe797696	-0.24361643
45	0x3e4a36ee	0.19747517
46	0xbe485a78	-0.19565761
47	0x3e3c1f42	0.18371299
48	0x3db58747	0.08863693
49	0x3e43a6b5	0.19106562
50	0xbd23b8fa	-0.03997133
51	0xbd9adc84	-0.07561591
52	0x3e51d666	0.20491943
53	0x3e3d3b28	0.18479598
54	0x3cb2acf7	0.021810992
55	0xbe0c8a70	-0.13724685
56	0x3b7b992c	0.0038390858
57	0xbd7c2040	-0.061554193
58	0x3e634128	0.22192824
59	0xbd10cafd	-0.035349835
60	0xbe6cad6e	-0.23113033
61	0xbe19441c	-0.14967388
62	0x3e198fba	0.14996234
63	0x3e09f0bd	0.1347074
64	0x3e02a7bd	0.127593
65	0x3daf2bc1	0.08553267
66	0x3e647572	0.22310427
67	0xbe30359b	-0.17207949
68	0xbd75f718	-0.0600501
69	0xbe7d0c31	-0.24711682
70	0x3e43c2a6	0.19117221
71	0x3dadf975	0.08494846
72	0x3e11b0c6	0.1422759
73	0x3d7719e2	0.06032742
74	0xbddb700b	-0.1071473
75	0x3e3b9cd9	0.18321551
76	0x3e3d93e1	0.18513443
77	0xbe704875	-0.2346514
78	0xbe08ed59	-0.13371791
79	0x3e5699d0	0.20957112
80	0xbe66f2d2	-0.22553566
81	0x3e13fe5f	0.14452504
82	0x3d96999c	0.073535174
83	0xbc9c9d95	-0.01911811
84	0x3e277641	0.16353704
85	0x3d9d33ca	0.076758936
86	0xbe037254	-0.12836581
87	0x3e1cd48c	0.15315455
88	0xbe119893	-0.14218359
89	0x3cfa2a1d	0.03053766
90	0xbc9052b7	-0.017617567
91	0x3d5f38dd	0.05449759
92	0x3e77ef6e	0.24212429
93	0xbcf5717d	-0.029961342
94	0xbe55dc90	-0.20884919
95	0xbe4b6013	-0.19860868

clf/encoder/conv1d_2/Conv1D i1 [64, 1, 3, 32]
0	0xf8	-8
1	0x2e	46
2	0xf1	-15
3	0xe1	-31
4	0x12	18
5	0x29	41
6	0xfa	-6
7	0xa7	-89
8	0x26	38
9	0xf4	-12
10	0x03	3
11	0x01	1
12	0x50	80
13	0xc5	-59
14	0x58	88
15	0x98	-104
16	0x00	0
17	0x89	-119
18	0x1c	28
19	0xfa	-6
20	0x2b	43
21	0xed	-19
22	0x59	89
23	0xcc	-52
24	0x90	-112
25	0xfa	-6
26	0x34	52
27	0x63	99
28	0xa0	-96
29	0x17	23
30	0xcf	-49
31	0x54	84
32	0x2f	47
33	0xe9	-23
34	0xf7	-9
35	0x42	66
36	0x8f	-113
37	0x3a	58
38	0xe3	-29
39	0xd6	-42
40	0x4e	78
41	0x43	67
42	0xbd	-67
43	0xc1	-63
44	0x04	4
45	0xcd	-51
46	0xe1	-31
47	0xc1	-63
48	0x96	-106
49	0x81	-127
50	0x26	38
51	0x74	116
52	0x62	98
53	0xd2	-46
54	0xa6	-90
55	0x08	8
56	0xfb	-5
57	0x89	-119
58	0x29	41
59	0xd8	-40
60	0x26	38
61	0xf3	-13
62	0x0e	14
63	0x55	85
64	0x67	103
65	0x71	113
66	0x22	34
67	0xa4	-92
68	0x27	39
69	0x36	54
70	0x1b	27
71	0xeb	-21
72	0x1f	31
73	0x5b	91
74	0xaa	-86
75	0xad	-83
76	0xec	-20
77	0xca	-54
78	0xe5	-27
79	0xaa	-86
80	0xb5	-75
81	0xc0	-64
82	0xfb	-5
83	0x5c	92
84	0xfa	-6
85	0x8e	-114
86	0xa8	-88
87	0x0d	13
88	0x72	114
89	0x0c	12
90	0x68	104
91	0x4a	74
92	0xa6	-90
93	0xaf	-81
94	0xd6	-42
95	0x0e	14
96	0xed	-19
97	0x60	96
98	0x4b	75
99	0x21	33
100	0xab	-85
101	0x50	80
102	0x8a	-118
103	0xcc	-52
104	0x06	6
105	0x37	55
106	0xd0	-48
107	0x2b	43
108	0x2c	44
109	0x84	-124
110	0x46	70
111	0xb3	-77
112	0x64	100
113	0x94	-108
114	0x90	-112
115	0xaa	-86
116	0x5a	90
117	0xce	-50
118	0x54	84
119	0xcb	-53
120	0x82	-126
121	0x69	105
122	0xcd	-51
123	0x43	67
124	0x39	57
125	0xcb	-53
126	0xa7	-89
127	0x88	-120
128	0xc8	-56
129	0x4c	76
130	0xd7	-41
131	0x69	105
132	0x0a	10
133	0xef	-17
134	0x63	99
135	0x8a	-118
136	0x64	100
137	0x05	5
138	0xca	-54
139	0x6e	110
140	0xf2	-14
141	0xd6	-42
142	0xe7	-25
143	0x1c	28
144	0x3c	60
145	0x4b	75
146	0x7d	125
147	0xcc	-52
148	0xb5	-75
149	0x04	4
150	0x82	-126
151	0xb1	-79
152	0xf2	-14
153	0x02	2
154	0x91	-111
155	0x5a	90
156	0x9f	-97
157	0x4b	75
158	0x03	3
159	0x9b	-101
160	0x5c	92
161	0x95	-107
162	0x04	4
163	0x2c	44
164	0x54	84
165	0x4a	74
166	0xcb	-53
167	0xda	-38
168	0x19	25
169	0x7d	125
170	0xca	-54
171	0xb1	-79
172	0x1d	29
173	0x9a	-102
174	0x81	-127
175	0x88	-120
176	0x04	4
177	0x9d	-99
178	0x85	-123
179	0x58	88
180	0x52	82
181	0x7b	123
182	0x21	33
183	0x7a	122
184	0xc1	-63
185	0x47	71
186	0xd7	-41
187	0xcb	-53
188	0xb3	-77
189	0x46	70
190	0x22	34
191	0xba	-70
192	0xe0	-32
193	0xa2	-94
194	0xeb	-21
195	0x6b	107
196	0x71	113
197	0x3a	58
198	0x45	69
199	0x7d	125
200	0x71	113
201	0xa3	-93
202	0xe2	-30
203	0xc6	-58
204	0xb7	-73
205	0x21	33
206	0x4c	76
207	0x00	0
208	0x5e	94
209	0xbc	-68
210	0x89	-119
211	0xb5	-75
212	0xdf	-33
213	0xf6	-10
214	0x54	84
215	0xad	-83
216	0xe6	-26
217	0x32	50
218	0x92	-110
219	0x81	-127
220	0xdd	-35
221	0xff	-1
222	0x7d	125
223	0xc8	-56
224	0x00	0
225	0x51	81
226	0x24	36
227	0x6d	109
228	0x0e	14
229	0xdd	-35
230	0x6f	111
231	0x57	87
232	0x5d	93
233	0x05	5
234	0x85	-123
235	0xa3	-93
236	0x8f	-113
237	0x2a	42
238	0xf9	-7
239	0xec	-20
240	0xe1	-31
241	0x91	-111
242	0x12	18
243	0x8a	-118
244	0xbe	-66
245	0x26	38
246	0x94	-108
247	0xdd	-35
248	0x9f	-97
249	0x67	103
250	0xb4	-76
251	0x78	120
252	0x4d	77
253	0x5f	95
254	0x86	-122
255	0x45	69

clf/encoder/conv1d_3/Conv1D i1 [128, 1, 3, 64]
0	0xff	-1
1	0x33	51
2	0x2e	46
3	0xd7	-41
4	0xba	-70
5	0x1f	31
6	0xa5	-91
7	0xcb	-53
8	0x14	20
9	0x10	16
10	0x28	40
11	0x75	117
12	0xfa	-6
13	0xa3	-93
14	0x38	56
15	0x68	104
16	0xf2	-14
17	0xe4	-28
18	0xc8	-56
19	0x5a	90
20	0x50	80
21	0xac	-84
22	0xb1	-79
23	0x58	88
24	0xf2	-14
25	0xa3	-93
26	0xb9	-71
27	0x1d	29
28	0x6a	106
29	0xb1	-79
30	0x0c	12
31	0xea	-22
32	0xa7	-89
33	0xcd	-51
34	0x79	121
35	0xd5	-43
36	0xdd	-35
37	0xc8	-56
38	0x54	84
39	0xcd	-51
40	0x31	49
41	0x3a	58
42	0x61	97
43	0x21	33
44	0x49	73
45	0x1d	29
46	0xf5	-11
47	0x5f	95
48	0x37	55
49	0x44	68
50	0x57	87
51	0xe0	-32
52	0x8d	-115
53	0xcf	-49
54	0x1e	30
55	0x47	71
56	0x87	-121
57	0x02	2
58	0x8c	-116
59	0x90	-112
60	0xf9	-7
61	0xf7	-9
62	0x46	70
63	0x8e	-114
64	0x4b	75
65	0x02	2
66	0xfc	-4
67	0xa3	-93
68	0xef	-17
69	0xc0	-64
70	0x95	-107
71	0xc1	-63
72	0x9e	-98
73	0x4e	78
74	0xc4	-60
75	0x22	34
76	0xa6	-90
77	0x5c	92
78	0x23	35
79	0x3b	59
80	0x8b	-117
81	0xd6	-42
82	0xfa	-6
83	0x5a	90
84	0xf7	-9
85	0xf2	-14
86	0xbe	-66
87	0x54	84
88	0x40	64
89	0x37	55
90	0x52	82
91	0x37	55
92	0x1e	30
93	0x06	6
94	0xc4	-60
95	0x0f	15
96	0x14	20
97	0x6f	111
98	0x01	1
99	0x44	68
100	0x26	38
101	0xfb	-5
102	0xf4	-12
103	0x4f	79
104	0x4a	74
105	0x3d	61
106	0x68	104
107	0xc2	-62
108	0x87	-121
109	0xfc	-4
110	0x7f	127
111	0x3d	61
112	0x9a	-102
113	0x33	51
114	0x09	9
115	0x67	103
116	0x61	97
117	0xfd	-3
118	0x29	41
119	0x97	-105
120	0x72	114
121	0x46	70
122	0x38	56
123	0xe0	-32
124	0x33	51
125	0xf7	-9
126	0x5b	91
127	0xba	-70
128	0xed	-19
129	0x8a	-118
130	0x9a	-102
131	0x7b	123
132	0xd0	-48
133	0xc8	-56
134	0x3d	61
135	0x06	6
136	0x63	99
137	0x70	112
138	0x52	82
139	0x24	36
140	0x41	65
141	0x36	54
142	0xf2	-14
143	0x53	83
144	0x28	40
145	0x53	83
146	0x60	96
147	0x02	2
148	0x09	9
149	0x02	2
150	0xb7	-73
151	0xb9	-71
152	0xe1	-31
153	0x31	49
154	0x49	73
155	0x6d	109
156	0x4b	75
157	0xe4	-28
158	0xbe	-66
159	0x30	48
160	0x09	9
161	0xb0	-80
162	0x0a	10
163	0xaf	-81
164	0x0c	12
165	0x8d	-115
166	0x1b	27
167	0x53	83
168	0x6a	106
169	0xd1	-47
170	0x75	117
171	0xe3	-29
172	0xb7	-73
173	0x44	68
174	0x3a	58
175	0x2f	47
176	0x71	113
177	0x32	50
178	0xad	-83
179	0xfe	-2
180	0xa0	-96
181	0x86	-122
182	0x1b	27
183	0x7b	123
184	0xa1	-95
185	0x7c	124
186	0xcd	-51
187	0x30	48
188	0xf5	-11
189	0x76	118
190	0x29	41
191	0x9b	-101
192	0xd0	-48
193	0xf8	-8
194	0x00	0
195	0x68	104
196	0x92	-110
197	0xe6	-26
198	0xa8	-88
199	0xb6	-74
200	0x14	20
201	0x81	-127
202	0xf3	-13
203	0x62	98
204	0xbd	-67
205	0x15	21
206	0xaf	-81
207	0x45	69
208	0x17	23
209	0x06	6
210	0x38	56
211	0xe8	-24
212	0xa9	-87
213	0xbf	-65
214	0xc9	-55
215	0xd4	-44
216	0x56	86
217	0xb9	-71
218	0xdd	-35
219	0x99	-103
220	0x77	119
221	0x1b	27
222	0xb6	-74
223	0x3b	59
224	0xe7	-25
225	0x6c	108
226	0xd7	-41
227	0x15	21
228	0xb3	-77
229	0x47	71
230	0x1a	26
231	0xa5	-91
232	0x69	105
233	0xdc	-36
234	0xae	-82
235	0x10	16
236	0x5f	95
237	0x03	3
238	0xbd	-67
239	0x73	115
240	0x9b	-101
241	0x43	67
242	0x48	72
243	0xce	-50
244	0x15	21
245	0x40	64
246	0xfc	-4
247	0xce	-50
248	0xd6	-42
249	0xb4	-76
250	0x4e	78
251	0x94	-108
252	0x9a	-102
253	0xac	-84
254	0x8f	-113
255	0x98	-104

clf/conv1d_2074/Conv1D i1 [128, 1, 3, 128]
0	0x4d	77
1	0x47	71
2	0xfb	-5
3	0x2e	46
4	0x45	69
5	0x2b	43
6	0x3f	63
7	0xb8	-72
8	0x2b	43
9	0x65	101
10	0xe9	-23
11	0x5d	93
12	0x35	53
13	0x74	116
14	0xc2	-62
15	0x71	113
16	0x06	6
17	0xcb	-53
18	0x5f	95
19	0x4f	79
20	0x28	40
21	0x40	64
22	0xd2	-46
23	0x6e	110
24	0xc6	-58
25	0x08	8
26	0x4c	76
27	0xe5	-27
28	0x7a	122
29	0x02	2
30	0x51	81
31	0x32	50
32	0xc0	-64
33	0xff	-1
34	0xca	-54
35	0xa9	-87
36	0xe7	-25
37	0x7d	125
38	0xe0	-32
39	0x4a	74
40	0x0e	14
41	0x61	97
42	0xe7	-25
43	0x52	82
44	0xf6	-10
45	0xcf	-49
46	0xbf	-65
47	0x00	0
48	0x19	25
49	0x31	49
50	0xc4	-60
51	0xe6	-26
52	0x0b	11
53	0x55	85
54	0x05	5
55	0x35	53
56	0xbb	-69
57	0x13	19
58	0xd5	-43
59	0xbd	-67
60	0xbc	-68
61	0x3a	58
62	0x1b	27
63	0x7a	122
64	0xfb	-5
65	0x53	83
66	0x73	115
67	0xba	-70
68	0x48	72
69	0xdb	-37
70	0x45	69
71	0xeb	-21
72	0x4a	74
73	0x6b	107
74	0x5d	93
75	0x25	37
76	0xef	-17
77	0xea	-22
78	0x47	71
79	0x09	9
80	0x18	24
81	0xc1	-63
82	0x2b	43
83	0xd7	-41
84	0x32	50
85	0xd9	-39
86	0x5c	92
87	0x6a	106
88	0x4f	79
89	0x2c	44
90	0x6e	110
91	0xf8	-8
92	0x57	87
93	0x3d	61
94	0x68	104
95	0xeb	-21
96	0x00	0
97	0x72	114
98	0x6a	106
99	0x6f	111
100	0x06	6
101	0x38	56
102	0xc1	-63
103	0xce	-50
104	0xb7	-73
105	0x6e	110
106	0x0f	15
107	0x0f	15
108	0xc5	-59
109	0xc1	-63
110	0xd1	-47
111	0x44	68
112	0x09	9
113	0xe0	-32
114	0x18	24
115	0x6f	111
116	0x0a	10
117	0x59	89
118	0x33	51
119	0x62	98
120	0xc7	-57
121	0xae	-82
122	0x2b	43
123	0x31	49
124	0x58	88
125	0x14	20
126	0x63	99
127	0x37	55
128	0xcb	-53
129	0x4a	74
130	0x17	23
131	0x17	23
132	0xfd	-3
133	0x1c	28
134	0xbc	-68
135	0x0f	15
136	0x69	105
137	0x1f	31
138	0x3e	62
139	0x5a	90
140	0xed	-19
141	0x5f	95
142	0xd0	-48
143	0xff	-1
144	0xe3	-29
145	0x34	52
146	0xd3	-45
147	0x6c	108
148	0xa2	-94
149	0x65	101
150	0xee	-18
151	0xda	-38
152	0xf2	-14
153	0x7a	122
154	0x7f	127
155	0x3c	60
156	0x15	21
157	0x45	69
158	0x56	86
159	0x24	36
160	0x41	65
161	0x69	105
162	0x43	67
163	0xf9	-7
164	0xf6	-10
165	0x5c	92
166	0xb5	-75
167	0xed	-19
168	0x24	36
169	0x2e	46
170	0xb9	-71
171	0x18	24
172	0x01	1
173	0x72	114
174	0x02	2
175	0xb5	-75
176	0xd7	-41
177	0xe6	-26
178	0xe8	-24
179	0x32	50
180	0x31	49
181	0xb7	-73
182	0xbc	-68
183	0x6a	106
184	0xf1	-15
185	0xe1	-31
186	0xfd	-3
187	0x0c	12
188	0xc8	-56
189	0xe1	-31
190	0x7c	124
191	0x65	101
192	0x42	66
193	0xfd	-3
194	0x5f	95
195	0x49	73
196	0x2f	47
197	0xcb	-53
198	0x4e	78
199	0xe7	-25
200	0x78	120
201	0x67	103
202	0x4c	76
203	0xb8	-72
204	0x14	20
205	0x27	39
206	0x0c	12
207	0x25	37
208	0x29	41
209	0x59	89
210	0xd8	-40
211	0x0c	12
212	0x67	103
213	0x20	32
214	0xbb	-69
215	0x15	21
216	0x7c	124
217	0x60	96
218	0x17	23
219	0x2f	47
220	0x35	53
221	0x42	66
222	0x18	24
223	0x7a	122
224	0x36	54
225	0xb3	-77
226	0x23	35
227	0x19	25
228	0xde	-34
229	0x7e	126
230	0xbc	-68
231	0x3f	63
232	0xbf	-65
233	0x70	112
234	0xf7	-9
235	0xcf	-49
236	0x32	50
237	0xd5	-43
238	0x5d	93
239	0xe1	-31
240	0x2f	47
241	0xbf	-65
242	0xf7	-9
243	0xcc	-52
244	0x64	100
245	0xc0	-64
246	0xe6	-26
247	0x36	54
248	0x54	84
249	0xac	-84
250	0x51	81
251	0xeb	-21
252	0x71	113
253	0x69	105
254	0xfa	-6
255	0x56	86

clf/dense_2407/MatMul i1 [128, 128] scale=0.0014170934 zero_point=0
0	0x19	0.035427336
1	0xbd	-0.09494526
2	0x0a	0.014170934
3	0x01	0.0014170934
4	0xeb	-0.029758962
5	0x1b	0.03826152
6	0x41	0.09211107
7	0xd4	-0.062352113
8	0x12	0.025507681
9	0xd4	-0.062352113
10	0xdd	-0.04959827
11	0x62	0.13887516
12	0xab	-0.12045294
13	0x2b	0.060935017
14	0x37	0.077940136
15	0x58	0.12470423
16	0x0c	0.017005121
17	0x3a	0.08219142
18	0x72	0.16154866
19	0xeb	-0.029758962
20	0x30	0.068020485
21	0x23	0.04959827
22	0x5b	0.1289555
23	0x77	0.16863412
24	0xd6	-0.059517924
25	0x64	0.14170934
26	0x43	0.09494526
27	0x59	0.12612131
28	0x22	0.048181176
29	0x16	0.031176057
30	0x33	0.072271764
31	0xe0	-0.04534699
32	0x1b	0.03826152
33	0xd9	-0.055266645
34	0xda	-0.05384955
35	0x40	0.09069398
36	0x60	0.13604097
37	0xab	-0.12045294
38	0x3b	0.083608516
39	0xc2	-0.087859794
40	0x97	-0.14879481
41	0x4f	0.11195038
42	0x3f	0.08927689
43	0x18	0.034010243
44	0x39	0.08077433
45	0x51	0.11478457
46	0xeb	-0.029758962
47	0x64	0.14170934
48	0xb3	-0.1091162
49	0x57	0.12328713
50	0x9b	-0.14312644
51	0xea	-0.031176057
52	0xf1	-0.021256402
53	0x69	0.14879481
54	0x46	0.09919654
55	0x32	0.07085467
56	0xfd	-0.0042512803
57	0xfc	-0.005668374
58	0x0d	0.018422214
59	0x2f	0.06660339
60	0xf4	-0.017005121
61	0xc2	-0.087859794
62	0xda	-0.05384955
63	0xcd	-0.072271764
64	0x36	0.07652304
65	0xef	-0.024090588
66	0x04	0.005668374
67	0xcb	-0.07510595
68	0xc3	-0.0864427
69	0x40	0.09069398
70	0x43	0.09494526
71	0xef	-0.024090588
72	0xb4	-0.1076991
73	0xc0	-0.09069398
74	0xdd	-0.04959827
75	0xff	-0.0014170934
76	0xb0	-0.113367476
77	0x3c	0.08502561
78	0xc6	-0.08219142
79	0x77	0.16863412
80	0xef	-0.024090588
81	0x0d	0.018422214
82	0x08	0.011336748
83	0x36	0.07652304
84	0x1e	0.042512804
85	0x1e	0.042512804
86	0xb0	-0.113367476
87	0xef	-0.024090588
88	0x0f	0.021256402
89	0xb2	-0.11053329
90	0x34	0.07368886
91	0x3a	0.08219142
92	0xfb	-0.007085467
93	0xe9	-0.03259315
94	0xa1	-0.13462387
95	0xfc	-0.005668374
96	0x77	0.16863412
97	0x6d	0.15446319
98	0xe2	-0.042512804
99	0xf0	-0.022673495
100	0xc8	-0.07935724
101	0x61	0.13745807
102	0xf0	-0.022673495
103	0x67	0.14596063
104	0xdd	-0.04959827
105	0xd9	-0.055266645
106	0x57	0.12328713
107	0x04	0.005668374
108	0x14	0.028341869
109	0x63	0.14029226
110	0x07	0.009919655
111	0xbb	-0.097779445
112	0x44	0.09636235
113	0x9d	-0.14029226
114	0xc7	-0.08077433
115	0xe1	-0.043929897
116	0x9c	-0.14170934
117	0x0a	0.014170934
118	0x63	0.14029226
119	0x71	0.16013156
120	0x29	0.05810083
121	0xed	-0.026924776
122	0x49	0.103447825
123	0xe5	-0.03826152
124	0xe0	-0.04534699
125	0xe4	-0.03967862
126	0xc3	-0.0864427
127	0xd0	-0.068020485
128	0xf3	-0.018422214
129	0xd7	-0.05810083
130	0x55	0.12045294
131	0x0f	0.021256402
132	0x42	0.09352817
133	0xcc	-0.07368886
134	0xb0	-0.113367476
135	0x63	0.14029226
136	0xc4	-0.08502561
137	0xda	-0.05384955
138	0x66	0.14454353
139	0xc9	-0.077940136
140	0x38	0.07935724
141	0xe1	-0.043929897
142	0x13	0.026924776
143	0x1a	0.03684443
144	0xe6	-0.03684443
145	0xaa	-0.12187003
146	0xe7	-0.035427336
147	0xe1	-0.043929897
148	0x08	0.011336748
149	0xac	-0.11903585
150	0x1d	0.04109571
151	0x3b	0.083608516
152	0x27	0.055266645
153	0x07	0.009919655
154	0xbe	-0.09352817
155	0x1f	0.043929897
156	0x53	0.117618755
157	0xfb	-0.007085467
158	0xf2	-0.01983931
159	0x21	0.046764083
160	0x5f	0.13462387
161	0x5e	0.13320678
162	0x59	0.12612131
163	0x35	0.07510595
164	0x9f	-0.13745807
165	0xc0	-0.09069398
166	0x4a	0.10486492
167	0xf5	-0.015588028
168	0x04	0.005668374
169	0x94	-0.15304609
170	0x0d	0.018422214
171	0xaf	-0.11478457
172	0xba	-0.09919654
173	0x5a	0.12753841
174	0xa6	-0.12753841
175	0xa0	-0.13604097
176	0x4a	0.10486492
177	0xf8	-0.011336748
178	0xb9	-0.10061363
179	0xe9	-0.03259315
180	0x11	0.024090588
181	0xa7	-0.12612131
182	0x96	-0.1502119
183	0x2f	0.06660339
184	0x64	0.14170934
185	0x17	0.03259315
186	0x35	0.07510595
187	0xc0	-0.09069398
188	0x66	0.14454353
189	0xfd	-0.0042512803
190	0xbd	-0.09494526
191	0x5c	0.1303726
192	0x68	0.14737771
193	0x06	0.008502561
194	0x97	-0.14879481
195	0xad	-0.117618755
196	0xfe	-0.002834187
197	0xef	-0.024090588
198	0xfd	-0.0042512803
199	0x63	0.14029226
200	0x5a	0.12753841
201	0x68	0.14737771
202	0x46	0.09919654
203	0x3e	0.087859794
204	0x66	0.14454353
205	0x02	0.002834187
206	0x0c	0.017005121
207	0xf8	-0.011336748
208	0x45	0.097779445
209	0xde	-0.048181176
210	0x5a	0.12753841
211	0xc9	-0.077940136
212	0x46	0.09919654
213	0x9f	-0.13745807
214	0x5f	0.13462387
215	0x16	0.031176057
216	0xde	-0.048181176
217	0x0b	0.015588028
218	0x30	0.068020485
219	0x9e	-0.13887516
220	0xa7	-0.12612131
221	0x97	-0.14879481
222	0x0e	0.01983931
223	0xec	-0.028341869
224	0x2c	0.062352113
225	0xc5	-0.083608516
226	0xb4	-0.1076991
227	0x26	0.05384955
228	0x36	0.07652304
229	0xc4	-0.08502561
230	0xfa	-0.008502561
231	0x3d	0.0864427
232	0x3e	0.087859794
233	0x9c	-0.14170934
234	0x26	0.05384955
235	0x26	0.05384955
236	0x05	0.007085467
237	0xcc	-0.07368886
238	0xf9	-0.009919655
239	0x4a	0.10486492
240	0xd1	-0.06660339
241	0x05	0.007085467
242	0xe0	-0.04534699
243	0xd3	-0.06376921
244	0x6b	0.151629
245	0xd8	-0.056683738
246	0xfd	-0.0042512803
247	0x1c	0.03967862
248	0x27	0.055266645
249	0xbc	-0.09636235
250	0xba	-0.09919654
251	0xdc	-0.051015362
252	0x36	0.07652304
253	0xf7	-0.012753841
254	0x53	0.117618755
255	0xd5	-0.060935017
